bestesMDL.pth (torch, 63431 bytes, 18 tensors)

net.fc1.weight f4 [64, 4]
0	0x3e95a191	0.29224828
1	0x3babd522	0.0052439133
2	0xc0492ced	-3.143367
3	0xbf2b0e50	-0.66818714
4	0xbb7914d3	-0.0038006797
5	0x3f05de67	0.52292484
6	0x3ddeedd1	0.10885204
7	0x3f2b4e60	0.66916466
8	0x3e5a4551	0.21315505
9	0xbdb1ad14	-0.0867559
10	0xc029eca3	-2.6550682
11	0xbec6fc54	-0.38864386
12	0xbfbf6158	-1.4951582
13	0xbe3cf939	-0.18454446
14	0xbed36a17	-0.41291878
15	0x3d558303	0.052126896
16	0x3f4eb961	0.80751616
17	0x3e970d9e	0.29502577
18	0xbfa2aa5a	-1.2708237
19	0xbdc13984	-0.09434798
20	0x3e91d765	0.28484645
21	0x3f64aa6b	0.8932254
22	0x3f2ee9da	0.6832558
23	0x3f33b27b	0.70194215
24	0xbde46f00	-0.11153984
25	0xbda71eef	-0.08160197
26	0x3fddb66a	1.7321293
27	0xbe919899	-0.28436735
28	0xbe1677a9	-0.14694084
29	0xbda0f0d7	-0.078584366
30	0xbf3405d7	-0.7032141
31	0x3e518f69	0.20464863
32	0xbe17a31b	-0.14808314
33	0xbe9f0b6e	-0.31063408
34	0xbf0a93bc	-0.54131675
35	0xbe99d4ef	-0.30045268
36	0x3ebc5bb0	0.36788702
37	0x3eefd143	0.46839342
38	0xbfd97078	-1.6987448
39	0xbe8b6dc3	-0.2723218
40	0x3ea5033e	0.32229036
41	0xbea9d0da	-0.33167154
42	0xc04deb51	-3.2174876
43	0xbf3812cb	-0.71903676
44	0xbca6c0d5	-0.020355621
45	0xbe0368ac	-0.12832898
46	0x3e74ff9a	0.2392563
47	0x3d2021fe	0.039094917
48	0xbae7cb47	-0.0017684483
49	0xbc0c8f59	-0.008579099
50	0xbd72a693	-0.05924089
51	0x3eaa6efb	0.33287796
52	0x3e1da43c	0.15394682
53	0xbe247c1b	-0.16062967
54	0x40023d1c	2.0349798
55	0xbdd58e95	-0.10427586
56	0x3ecb6f6b	0.39733443
57	0xbea73276	-0.32655686
58	0xc028dd91	-2.6385233
59	0xbf027cf8	-0.5097194
60	0x3f1b5457	0.6067557
61	0x3f5a33b2	0.8523513
62	0x40011a68	2.0172367
63	0x3f2e25cc	0.68026423
64	0x3f1c71c5	0.611111
65	0x3ec0e5ef	0.37675425
66	0x3fc54034	1.5410218
67	0x3ec0a834	0.3762833
68	0x3ea2cc5b	0.31796536
69	0x3ede5b44	0.43429005
70	0xbf64c12d	-0.8935726
71	0x3d7d8a4f	0.06189948
72	0x3e2b6657	0.16738258
73	0x3ec00beb	0.37509093
74	0x402449a6	2.5669951
75	0x3f28abd6	0.658872
76	0x3db5292f	0.08845746
77	0xbf23b26f	-0.63944143
78	0xbb7715c4	-0.0037702182
79	0xbf033572	-0.51253426
80	0xbec1fff6	-0.37890595
81	0x3e8c04d7	0.27347443
82	0x3f11f4ed	0.5701435
83	0xbd7158c3	-0.05892254
84	0x3f67d901	0.90565497
85	0xbe080045	-0.13281353
86	0xbfa8eda1	-1.3197519
87	0xbe90e504	-0.28299725
88	0x3f3876bb	0.7205617
89	0xbec8c258	-0.39210773
90	0xbfcdceed	-1.6078774
91	0x3da0bb88	0.07848269
92	0x3eb59792	0.354672
93	0xbd4aa988	-0.049478084
94	0xbfbaac5f	-1.4583853
95	0xbe8005cb	-0.2500442
96	0x3ea457ca	0.32098228
97	0xbe4acaca	-0.1980392
98	0xc02e9ec1	-2.7284396
99	0xbedb8df2	-0.42881733
100	0x3f6645c5	0.8995021
101	0x3e9c3820	0.3051157
102	0xbfb691b4	-1.4263215
103	0xbb8c25e6	-0.004276979
104	0xbf144fdf	-0.57934374
105	0xbd3ed166	-0.046586417
106	0xbfe0a261	-1.7549554
107	0xbdb7738b	-0.08957585
108	0xbdd0b47d	-0.101906754
109	0x3e12d139	0.14337625
110	0x3c91f9fe	0.0178194
111	0x3e18f53b	0.14937298
112	0xbef24d40	-0.47324562
113	0x3e04f2a9	0.12983193
114	0xbe5e9a2e	-0.21738502
115	0xbec43e70	-0.38328886
116	0xbe0fc3f4	-0.14039594
117	0x3db4c91c	0.08827421
118	0x3cfa1373	0.030526852
119	0xbcd819cb	-0.026379487
120	0x3f374bfd	0.71600324
121	0x3ed81e91	0.4221082
122	0x3e47188b	0.19442956
123	0x3e385f4d	0.18005104
124	0xbf3b9d4b	-0.73286885
125	0xbeb9bf45	-0.3627874
126	0xbfb097f7	-1.3796376
127	0xbec9a201	-0.39381412
128	0xbf8d97e5	-1.106198
129	0xbe95d710	-0.29265642
130	0xbf72adcf	-0.9479646
131	0xbe0d970e	-0.13827154
132	0xbf603ea5	-0.8759559
133	0xbd558609	-0.05212978
134	0x3fe84f2d	1.8149163
135	0x3e9d4afd	0.30721274
136	0xbf34318e	-0.70388114
137	0xbc3c4649	-0.011491367
138	0x403a8616	2.914434
139	0x3f008e5b	0.5021722
140	0x3e624ee9	0.22100414
141	0xbce40409	-0.027833955
142	0x401b75c6	2.4290633
143	0x3eb35861	0.35028365
144	0xbe9c27ad	-0.3049902
145	0xbe551521	-0.20808841
146	0x3f84ee7c	1.038528
147	0xbd5f6412	-0.054538794
148	0xbf2b637a	-0.66948664
149	0xbed42c67	-0.41440126
150	0xbfd5b9de	-1.6697347
151	0xbee7e59e	-0.45292372
152	0x3d309b73	0.043116998
153	0x3e3722d5	0.17884381
154	0x3f842d5f	1.0326346
155	0xbeb90dd1	-0.36143354
156	0x3f49f19c	0.7888429
157	0xbee884b8	-0.45413756
158	0xbfa2d09d	-1.2719914
159	0x390f427a	0.00013662307
160	0x3cdd4ea9	0.027015047
161	0xbe7d0084	-0.24707228
162	0xbfa63fc3	-1.2988209
163	0xbf0f3273	-0.55936354
164	0xbf3337db	-0.70007104
165	0x3e8e0588	0.27738595
166	0x40261361	2.5949328
167	0x3f3322ef	0.6997518
168	0xbf1245ad	-0.57137567
169	0xbe5690d7	-0.2095369
170	0x3fb670a6	1.4253128
171	0xbd40d3e8	-0.04707709
172	0xbf539867	-0.8265442
173	0x3e3a2510	0.181782
174	0x405e871c	3.4769964
175	0x3f467228	0.7751794
176	0x3ebd811e	0.3701257
177	0xbea2d0b9	-0.31799868
178	0xc01ee0e2	-2.4824758
179	0xbf120dfb	-0.5705258
180	0x3dc20301	0.09473229
181	0xbdaf4ef8	-0.08559984
182	0x40066671	2.1000025
183	0x3e70d534	0.2351883
184	0x3f3020c8	0.6880002
185	0x3f2de682	0.6792985
186	0x3f8bcf15	1.0922571
187	0x3eee5f87	0.46557257
188	0xbed8b709	-0.42327145
189	0x3e865e59	0.26243857
190	0x402f5c6e	2.7400165
191	0x3f1de45e	0.61676586
192	0xbcfa6fbb	-0.030570855
193	0xbe6663f0	-0.2249906
194	0xbfa18bc6	-1.262078
195	0xbec6630a	-0.38747436
196	0xbe8e7b6a	-0.27828532
197	0x3e3c4ccb	0.18388669
198	0xbe7d736a	-0.24751058
199	0x3d21f0cf	0.039536294
200	0xbd8a01ff	-0.06738662
201	0xbbc9b6a7	-0.006155807
202	0xbfb5b529	-1.4195911
203	0xbe428798	-0.18997037
204	0xbef083fb	-0.46975693
205	0x3f509cec	0.81489444
206	0xbecb7b9d	-0.39742747
207	0x3ef7c82b	0.48394904
208	0x3ea6e2e9	0.32594994
209	0x3e328347	0.17432891
210	0xbe6ed897	-0.2332481
211	0x3c7d08bb	0.015443976
212	0x3ef427be	0.4768657
213	0xbd1cb471	-0.03825802
214	0xbfe4a66a	-1.7863286
215	0x3ef1c58f	0.47221038
216	0xbf8f33ed	-1.1187721
217	0xbf1e09f9	-0.6173397
218	0xbfb834dd	-1.4391133
219	0xbefffc54	-0.499972
220	0x3f39fb67	0.72649235
221	0x3e611ab3	0.21982841
222	0x3fcc25e1	1.594906
223	0x3ea78dc8	0.32725358
224	0xbe5e8644	-0.21730906
225	0x3e077b71	0.13230683
226	0xbf8a2c7b	-1.0794824
227	0xbd55bcf0	-0.052182138
228	0x3dbb5472	0.09146966
229	0xbecf2682	-0.40459067
230	0x3ef95f0d	0.4870533
231	0x3f60b2d9	0.877729
232	0xbe6eaafe	-0.23307416
233	0x3e8fd6cd	0.28093567
234	0x3fced300	1.6158142
235	0xbe63f961	-0.22263099
236	0x3e6bfee5	0.23046453
237	0xbe8d88ed	-0.2764353
238	0xbefbe451	-0.4919763
239	0xbd3cfa4b	-0.046137135
240	0x3f360a69	0.71109635
241	0x3eed410c	0.4633869
242	0xbf4a250f	-0.78962797
243	0x3e2f347d	0.17109866
244	0x3eee0ed6	0.46495694
245	0xbeec8972	-0.46198612
246	0xbd426c33	-0.047466468
247	0xbeb39721	-0.3507624
248	0xbc04671c	-0.008081224
249	0xbd94d737	-0.072676115
250	0xbf9d13b3	-1.2271637
251	0xbe3e40b8	-0.18579376
252	0x3f41b34d	0.75664216
253	0xbd015b80	-0.0315814
254	0xbfc580e2	-1.5429957
255	0xbe863e0a	-0.26219207

net.fc1.bias f4 [64]
0	0xbf9df3cf	-1.234003
1	0x3f073812	0.5281993
2	0xbf0b126c	-0.54324985
3	0xbeb8430f	-0.35988662
4	0xbed57763	-0.41692647
5	0xbdba8cbc	-0.09108874
6	0x3f2577ca	0.6463591
7	0x3f514ac3	0.817547
8	0x3e79feb6	0.24413571
9	0xbf6abf78	-0.9169841
10	0xbf39678e	-0.72423637
11	0x3ec9a1c5	0.39381233
12	0x3f770f75	0.9650796
13	0x3edc6058	0.43042254
14	0xbf328440	-0.6973305
15	0xbeb65ae1	-0.3561621
16	0xbf80a4d4	-1.0050302
17	0x3d801dc4	0.06255677
18	0xbf0ed411	-0.5579234
19	0xbd801002	-0.06253053
20	0x3f4ffb16	0.812425
21	0xbf060f04	-0.5236666
22	0xbe4c2bd8	-0.199386
23	0x3f12e659	0.5738273
24	0xbef497ea	-0.4777215
25	0xbf24d18e	-0.64382255
26	0xbf39f6d3	-0.7264225
27	0x3f675ca6	0.90375745
28	0xbea60557	-0.3242595
29	0x3f519db3	0.81881255
30	0xbd9db6dc	-0.07700893
31	0xbedc477e	-0.43023294
32	0xbe5bf4cc	-0.21480101
33	0xbf1318d9	-0.5745979
34	0xbf14a945	-0.58070785
35	0x3e067a2f	0.13132547
36	0x3e857084	0.26062405
37	0xbea63330	-0.32460928
38	0xbe486c0d	-0.19572468
39	0xbf2d8b05	-0.6779025
40	0x3f5d53a9	0.8645578
41	0xbf3548fd	-0.70814496
42	0x3ecb24fe	0.3967666
43	0xbf24ae5c	-0.6432855
44	0xbf206c54	-0.62665296
45	0x3f1cdeaf	0.6127729
46	0xbebcb79c	-0.36858833
47	0x3f6ac230	0.91702557
48	0x3e22183a	0.15829554
49	0xbed7ee07	-0.42173788
50	0x3ef9600a	0.48706084
51	0x3e14dfda	0.14538518
52	0x3ed49eb4	0.4152733
53	0x3d01d2ab	0.03169505
54	0xbe30c6ce	-0.17263338
55	0xbe1a77fd	-0.15084834
56	0x3f077f64	0.5292876
57	0xbeaa5df2	-0.332748
58	0x3e16da04	0.14731604
59	0x3f64ce32	0.8937713
60	0xbea1ec20	-0.31625462
61	0x3e8c3064	0.2738067
62	0x3f156818	0.5836196
63	0x3f295f44	0.6616099

net.fc2.weight f4 [64, 64]
0	0xc0ad5011	-5.4160237
1	0x3f1a4477	0.6026072
2	0xbf6dd31a	-0.9290024
3	0xbf996b8b	-1.1985945
4	0x3dfe18de	0.12407087
5	0x3e4a4660	0.19753408
6	0x3e8705aa	0.2637151
7	0x3efdb828	0.49554563
8	0xbe39270c	-0.18081301
9	0xbeb7a5db	-0.35868725
10	0xbf72ff4e	-0.94920814
11	0x3ea1ae15	0.31578127
12	0x3f1868a8	0.5953469
13	0x3ea64e52	0.3248163
14	0xc086837a	-4.2035494
15	0xbdd81f66	-0.10552864
16	0x3eb1b2f3	0.3470684
17	0x3ed39ac5	0.41329017
18	0xbf5b9692	-0.8577663
19	0x3f04ee7f	0.51926416
20	0x3e73655f	0.23769139
21	0xbfe26d76	-1.7689655
22	0xbea87120	-0.32898808
23	0x3eba6101	0.36402133
24	0xbe5b45f0	-0.21413398
25	0xc00d8fa6	-2.2118926
26	0xbfcf099e	-1.617481
27	0x3f0989fa	0.5372616
28	0x3e9dda5d	0.3083066
29	0x3eddbb89	0.4330714
30	0x3e445247	0.19172011
31	0xbf8918f2	-1.0710738
32	0xc009a7dd	-2.1508706
33	0xc1404dd0	-12.018997
34	0xc13b39d7	-11.701621
35	0x3e4f02fb	0.2021598
36	0x3f0401ab	0.51565045
37	0xbf29734e	-0.66191566
38	0x3e93765a	0.28801233
39	0x3e5fc58b	0.218527
40	0x3e6bbabd	0.23020454
41	0xc122009c	-10.125149
42	0x3eec1e37	0.46116802
43	0xc106b4f9	-8.419183
44	0xbfc766e6	-1.5578277
45	0x3edf840e	0.43655437
46	0xbd760d7e	-0.06007146
47	0x3e7b396b	0.24533622
48	0xbf7d8e2a	-0.9904505
49	0xbca575e8	-0.020197824
50	0x3e21ae0a	0.15789047
51	0x3f09c333	0.53813475
52	0x3e8f7a7d	0.2802314
53	0x3ef95de6	0.4870445
54	0xbee77b6d	-0.45211354
55	0xbe07b0f2	-0.13251093
56	0x3eb235a8	0.3480656
57	0x3f1b7bc0	0.607357
58	0x3d9a0b67	0.07521706
59	0x3efe21b3	0.49635085
60	0x3d6564fd	0.056004513
61	0x3d298bbc	0.041393027
62	0x3eb7c4c0	0.35892296
63	0x3e9a62aa	0.301534
64	0xc074b307	-3.823427
65	0x3f1c3649	0.6102033
66	0xc1278e8a	-10.4723
67	0xbe8fed26	-0.28110617
68	0xbfeb431a	-1.8379853
69	0x3ecf7a5c	0.4052304
70	0x3f17878a	0.5919119
71	0x3e9a17d1	0.30096295
72	0x3eac462d	0.3364729
73	0xc00ff7c0	-2.2494965
74	0xc128a3fc	-10.540035
75	0x3ea28e9c	0.31749427
76	0x3f038085	0.5136798
77	0x3f08d44d	0.53448945
78	0xc0f607db	-7.688459
79	0xbf1cac8b	-0.6120078
80	0x400debde	2.2175212
81	0x3dd7a560	0.1052959
82	0xbe7e8f00	-0.24859238
83	0x3ede55a1	0.43424705
84	0x3e95b189	0.2923701
85	0xc0a341dc	-5.1017895
86	0xbeb1a398	-0.34695125
87	0x3eb2f113	0.3494955
88	0xc109f772	-8.622911
89	0xbfa78092	-1.3086112
90	0xbf38cc63	-0.7218687
91	0x3efd8856	0.4951808
92	0x3f0a28ac	0.5396831
93	0x3efb508c	0.4908489
94	0xbf1b6415	-0.6069959
95	0x3dd5ea87	0.10445123
96	0xbe24a45b	-0.16078322
97	0xbf10f4db	-0.5662362
98	0xbcf40915	-0.029789487
99	0x3e64b369	0.22334065
100	0x3ef33e08	0.47508264
101	0xbf503284	-0.8132708
102	0x3f024937	0.50892967
103	0x3f21c7ac	0.631953
104	0x3f1a4b14	0.6027081
105	0xbf8a6109	-1.0810863
106	0x3ef364db	0.47537884
107	0x3f0b7d72	0.5448829
108	0xc145eba3	-12.3700285
109	0x3ef9dd96	0.4880187
110	0xc05d3e9d	-3.4569466
111	0x3f10c4da	0.5655037
112	0x3ef18f57	0.47179672
113	0xbd2c144e	-0.04201155
114	0x3e713082	0.2355366
115	0x3ecd2902	0.4007035
116	0x3ee4999c	0.44648445
117	0x3e227318	0.15864217
118	0xbf685015	-0.90747195
119	0xbeeefff2	-0.46679646
120	0x3e2e7e08	0.17040265
121	0x3e3f3e89	0.18676199
122	0x3e5004c1	0.20314313
123	0x3efd5fab	0.4948705
124	0xc020c413	-2.5119674
125	0x3eb1fe2d	0.34764233
126	0x3e86a5eb	0.2629846
127	0x3ea3969c	0.31950843
128	0xbcc7badd	-0.024381096
129	0xbde6d710	-0.11271489
130	0x3d8221e8	0.06354123
131	0x3d89d76e	0.06730543
132	0x3dc14fe7	0.09439068
133	0x3d335887	0.043785598
134	0xbdd0905a	-0.10183783
135	0x3dd5a748	0.10432297
136	0xbc59761a	-0.0132727865
137	0x3ce20b1c	0.027593188
138	0xbdfdd281	-0.12393666
139	0xbd1343c8	-0.035953313
140	0xbdfb5c54	-0.122734696
141	0xbd8edb44	-0.06975415
142	0xbb99ca20	-0.0046932846
143	0xbdc9005c	-0.09814522
144	0x3d233510	0.039845526
145	0x3d3b5800	0.04573822
146	0x3c8ea718	0.01741366
147	0xbdab490c	-0.08363542
148	0xbdf139e5	-0.11778621
149	0xbdaeaab6	-0.08528654
150	0x3d60bf20	0.05486977
151	0x3dd3c103	0.103395484
152	0x3d5e3f0a	0.054259337
153	0xbd249bb6	-0.04018756
154	0x3c281da6	0.010260975
155	0xbe0d3706	-0.13790521
156	0xbe0334aa	-0.12813058
157	0x3d326423	0.04355253
158	0xbd910096	-0.0708019
159	0x3d30b292	0.043139048
160	0xbdb4b7f8	-0.08824152
161	0xbd7d9964	-0.061913863
162	0xbdd2dd48	-0.10296112
163	0x3d32ba3b	0.043634634
164	0xbc50ae60	-0.012736887
165	0x3da1ea62	0.07906033
166	0x3d611da0	0.054959893
167	0x3d8da7dc	0.06916782
168	0xbc7eb1af	-0.015545293
169	0xbd1e4c94	-0.03864725
170	0xbd3b69ca	-0.045755185
171	0x3c881718	0.016612574
172	0x3cf876c4	0.03033007
173	0xbdb359dc	-0.08757374
174	0x3d8a50c8	0.06753689
175	0xbd385457	-0.045002308
176	0xbdfb1067	-0.12258988
177	0xbd8a82c4	-0.06763223
178	0x3db81b1c	0.08989546
179	0x3d9c142c	0.07621035
180	0xbe0c2649	-0.1368648
181	0x3db48e6e	0.08816229
182	0x3cff491a	0.031162787
183	0x3d4f3b03	0.050593387
184	0x3daf9e27	0.08575087
185	0xbd89f8a6	-0.06736879
186	0x3c923be0	0.017850816
187	0x3d21906f	0.039444383
188	0xbd9636ac	-0.073346466
189	0x3cd8e7af	0.026477663
190	0xbd45da4b	-0.048303884
191	0x3d6b75e2	0.05748547
192	0xc09d7c5b	-4.92143
193	0xbe7fc86f	-0.24978803
194	0x3decea8c	0.11568174
195	0xbe899bb1	-0.26876596
196	0xbde8805a	-0.11352606
197	0x3d45ef34	0.048323825
198	0x3dfa339c	0.12216875
199	0xbe643cfe	-0.22288892
200	0x3de26885	0.11055092
201	0x3f58af5d	0.84642583
202	0x3ccfa8e7	0.025349094
203	0xbe8fe5f4	-0.28105128
204	0xbe937bc5	-0.28805366
205	0x3ca86a40	0.020558476
206	0xc0527c4f	-3.2888372
207	0xbddac1dc	-0.10681507
208	0xb9b2f000	-0.0003412962
209	0x3e5b5901	0.21420671
210	0x3e59c3fe	0.21266171
211	0xbf0a47a7	-0.5401558
212	0x3dc269b9	0.09492821
213	0xbfe7ee79	-1.8119651
214	0x3e258f8c	0.1616804
215	0x3ea43245	0.32069603
216	0xbd8b3872	-0.067978755
217	0xc07fa8df	-3.994682
218	0xc05f35c4	-3.4876566
219	0x3dae3d8a	0.085078314
220	0x3e8ccfe3	0.27502355
221	0x3d7199a0	0.0589844
222	0x3e77d59d	0.24202581
223	0xbf68fe2d	-0.9101284
224	0xbeb3c3d9	-0.35110357
225	0x3e1b0939	0.15140237
226	0xbe12c615	-0.14333375
227	0x3dca6f6d	0.09884534
228	0xbeff3fb6	-0.49853295
229	0xbfffcaed	-1.9983803
230	0x3e4766ec	0.19472855
231	0xbed165f8	-0.40898108
232	0x3e944e30	0.28965902
233	0xbdea8498	-0.114510715
234	0xbb8a6caa	-0.0042243795
235	0xbe2ccf25	-0.16875894
236	0xbf8fd518	-1.1236906
237	0xc0865162	-4.1974344
238	0x3f1329d5	0.57485706
239	0xc0e32567	-7.0983157
240	0xbd834c07	-0.064109854
241	0xbd9721d8	-0.07379502
242	0x3e49421c	0.19654125
243	0x3eed1af9	0.4630964
244	0x3e0e8ce2	0.1392093
245	0x3f41e599	0.75740963
246	0xbf5c4183	-0.8603746
247	0x3e6f0ff1	0.23345925
248	0x3e8085f5	0.251022
249	0xbd4ee4a1	-0.050511006
250	0x3ee2082a	0.44146854
251	0x3d5802c2	0.052737005
252	0x3e29e60a	0.16591659
253	0xbe0aedec	-0.13567322
254	0x3e35c9c6	0.17752752
255	0x3f0ba677	0.5455088

net.fc2.bias f4 [64]
0	0x3f087627	0.53305286
1	0x3f2946ad	0.6612347
2	0xbd5900df	-0.052979346
3	0xbc972b74	-0.018453337
4	0x3f268df9	0.65060383
5	0x3f00a06d	0.5024479
6	0x3f268c10	0.6505747
7	0xbe0b99ca	-0.13632885
8	0x3f553661	0.832861
9	0xbed8d6c7	-0.42351362
10	0x3f069d40	0.52583694
11	0xbe8b770d	-0.27239266
12	0xbdbf7d88	-0.09350115
13	0xbee904e1	-0.45511535
14	0x3f3dd422	0.74151814
15	0x3d8bf352	0.06833519
16	0xbe8331e1	-0.25623992
17	0xbd9ff3e1	-0.07810188
18	0x3f5a2f28	0.85228205
19	0xbc5cb55d	-0.013470975
20	0xbdbc2313	-0.091863774
21	0xbd4a1eb0	-0.049345672
22	0x3f3be33c	0.7339361
23	0x3f2c535e	0.6731471
24	0x3f184955	0.59486896
25	0xbf4e5ae8	-0.8060746
26	0x3f3aceb8	0.7297168
27	0xbd644fbb	-0.0557401
28	0x3f2190f9	0.63111836
29	0x3dd302bc	0.10303256
30	0x3f224a63	0.63394755
31	0x3f227770	0.634635
32	0xbd885a50	-0.06657851
33	0xbdc8cedb	-0.098050795
34	0x3f433685	0.76255065
35	0x3ebfac33	0.37436065
36	0x3f4c5282	0.79813397
37	0xbdba462c	-0.090954155
38	0x3ce266ba	0.027636874
39	0x3dc6bab0	0.097035766
40	0xbd7be477	-0.061497178
41	0x3ccfc981	0.02536464
42	0x3ef5c39a	0.48000795
43	0x3f4ec003	0.80761737
44	0x3d54d20f	0.05195814
45	0x3f0c6691	0.54844004
46	0x3f4b0c87	0.7931599
47	0xbdbe7b2f	-0.09300839
48	0xbd9a5619	-0.07535953
49	0x3df79eda	0.120908454
50	0x3d07adae	0.03312462
51	0xbdc8abda	-0.09798403
52	0x3d361f09	0.04446319
53	0x3f6a2366	0.91460264
54	0xbcae1cbb	-0.021253934
55	0xbe11d984	-0.14243132
56	0x3f2b30db	0.6687142
57	0xbd95f015	-0.07321183
58	0x3d848298	0.06470221
59	0xbef2a239	-0.4738939
60	0x3f29bfc3	0.6630823
61	0xbd0800cc	-0.033203885
62	0xbd2ad108	-0.041703254
63	0x3f593897	0.84851974

net.out.weight f4 [2, 64]
0	0x3fc91c65	1.571179
1	0xbf7ae2d3	-0.98002356
2	0xbd6fbd32	-0.05853004
3	0x3f90dbaa	1.1317036
4	0x3f7c33a7	0.98516315
5	0x3f863e77	1.0487813
6	0x3eeab767	0.4584305
7	0x3c894429	0.016756134
8	0x3f66b184	0.9011462
9	0xc0444f3d	-3.0673363
10	0x3fbcffcc	1.4765563
11	0xc0494edc	-3.1454382
12	0x3db221de	0.08697866
13	0x403643ed	2.8478959
14	0x3f028f23	0.5099966
15	0x3d6f6274	0.0584435
16	0xbe83f9a9	-0.25776413
17	0x3d903135	0.070406355
18	0x3f0f12d5	0.5588811
19	0xbc2a5090	-0.010395184
20	0x3cdfe167	0.02732916
21	0x3c75e2d9	0.015007698
22	0x3faaa306	1.3331001
23	0x3f7a98b2	0.97889245
24	0x3f4e8e8c	0.8068626
25	0x3fca206c	1.5791144
26	0x3f3e330e	0.74296653
27	0xbcbf9b65	-0.023389528
28	0x3f94669e	1.1593816
29	0x3faa22b4	1.329184
30	0x3f8a747e	1.08168
31	0x3f98c709	1.1935741
32	0xbae00bf7	-0.001709341
33	0xbd9136db	-0.07090541
34	0x3fa5387b	1.2907861
35	0x3f888994	1.0666986
36	0x3f40a52a	0.7525202
37	0x3d9d9706	0.07694821
38	0x3db3bbbc	0.08776042
39	0x3d0d2d96	0.034467302
40	0x3cb6771e	0.022273596
41	0xba8be3ac	-0.001067271
42	0x3fb1baf5	1.388518
43	0x3f22722e	0.63455474
44	0x3fdd80e3	1.7304958
45	0x3fa23684	1.2672887
46	0xbea59c3f	-0.3234577
47	0xbbb978ea	-0.005660166
48	0xbdc31783	-0.09525969
49	0x3d94bb10	0.07262242
50	0xbd8ea021	-0.06964136
51	0xbde8cb34	-0.11366883
52	0xbdcf55d1	-0.1012379
53	0x3fa30ed8	1.2738905
54	0x3cfdde41	0.030989768
55	0x3d8b5eaf	0.06805169
56	0xbe269843	-0.1626902
57	0xbcd02e65	-0.025412748
58	0xbc91e4d3	-0.017809307
59	0xbfad50aa	-1.3540242
60	0xbf62a50f	-0.8853311
61	0xbd395c8c	-0.045254275
62	0x3ca1e164	0.019760795
63	0x3fadd914	1.3581872
64	0xbf793767	-0.9735016
65	0x3fafccba	1.3734353
66	0xbda3a57c	-0.07990548
67	0xc0a5e559	-5.1842465
68	0x3f9abdcf	1.2089175
69	0x3f8e3751	1.1110631
70	0x3faa93d0	1.3326359
71	0x3cab9154	0.020943321
72	0x3ec766e0	0.38945675
73	0xbfbef0c8	-1.4917231
74	0xbc619e29	-0.0137706185
75	0xbfff0da2	-1.9926035
76	0xbdc8b80c	-0.09800729
77	0x3fe68f23	1.8012432
78	0x3f4a5f1f	0.79051393
79	0xbd13cad2	-0.036082096
80	0xc05b880c	-3.4301786
81	0x3d88b58e	0.06675254
82	0x3f45f506	0.77327
83	0xbd206060	-0.03915441
84	0xbd787333	-0.060656738
85	0xbcd5cfe8	-0.026100114
86	0x3f514cab	0.8175761
87	0x3e0e48a9	0.13894905
88	0x3dc04184	0.09387496
89	0x40802b81	4.0053105
90	0x3eb60a86	0.35554904
91	0xbcf57cad	-0.029966677
92	0x3f8f109e	1.1176946
93	0xc0a45d51	-5.136391
94	0x3f92996e	1.1453073
95	0x3ea4a726	0.32158774
96	0xbc77b23e	-0.01511818
97	0xbde42460	-0.111397505
98	0x3f75223b	0.95755357
99	0xbfa9be46	-1.3261192
100	0x3f04ffeb	0.51953
101	0xbd07b0b8	-0.033127517
102	0xbdd276b6	-0.102765486
103	0xbda8396f	-0.082140796
104	0xba806d77	-0.0009798248
105	0xbc80152f	-0.015635101
106	0x3f2f4f4d	0.6848038
107	0x3f0803dc	0.5313089
108	0xc01491e7	-2.3214052
109	0x3ee3eb68	0.44515538
110	0x3fbe7e8c	1.4882369
111	0xbced0706	-0.028934013
112	0xbc737067	-0.014858342
113	0x3b8301e0	0.0039980263
114	0x3d5c19af	0.05373543
115	0x3d867b3d	0.065664746
116	0xbc75c1a3	-0.01499978
117	0x3f418bc6	0.756039
118	0xbc82089c	-0.015873246
119	0xbd7dcf33	-0.06196518
120	0x3fb34bae	1.4007471
121	0xbd332a8d	-0.04374175
122	0xbd1f93f0	-0.038959444
123	0xbf4c0dc4	-0.79708505
124	0x3fd209de	1.6409261
125	0x3de39e6a	0.111141995
126	0xbd320f3b	-0.043471556
127	0x3f9d252d	1.227697

net.out.bias f4 [2]
0	0x3f5af9be	0.85537326
1	0x3f226aae	0.6344403

exp_avg f4 [64, 4]
0	0xbe13894f	-0.14407848
1	0xc021d60a	-2.528689
2	0x3e13ba04	0.14426428
3	0x406f5247	3.7393968
4	0x3d0f3016	0.034957968
5	0x3e5cf880	0.2157917
6	0x3d464b1e	0.04841148
7	0xbd9190f9	-0.071077295
8	0xbdd3c5ad	-0.10340438
9	0xbff6e2c6	-1.9287956
10	0x3ddb926e	0.107212886
11	0x4036f1ba	2.8585038
12	0x3dcfc01f	0.10144066
13	0x3d0258ab	0.03182284
14	0x3ae2fbf2	0.0017317517
15	0xbbc5d0f1	-0.0060368706
16	0xbdb637cb	-0.088973604
17	0xbe961ca9	-0.2931874
18	0xba8e6053	-0.0010862447
19	0x3e8bc057	0.2729518
20	0x3d5f3f9f	0.054504033
21	0x3ea64e8d	0.32481804
22	0x3d4dd236	0.0502493
23	0xbe11abf5	-0.14225753
24	0xbd5d2d27	-0.05399814
25	0x3efff2ac	0.4998983
26	0x3d972b8c	0.07381353
27	0xbf096d9a	-0.53682864
28	0xbd309b7f	-0.043117043
29	0x3f11abe2	0.569029
30	0x3da12e54	0.078701645
31	0xbf1dc704	-0.616318
32	0xbd11266f	-0.035437044
33	0x3e2f5552	0.17122391
34	0x3c4dd429	0.01256279
35	0xbe64c09b	-0.22339098
36	0x3d299c49	0.04140881
37	0xbe71d917	-0.2361797
38	0x3c487832	0.012235688
39	0x3eba0e9d	0.36339274
40	0xbd87efd1	-0.06637538
41	0xbf5a5863	-0.8529112
42	0x3d307720	0.043082356
43	0x3f9bb53c	1.2164683
44	0xbd2a18ec	-0.041527674
45	0x3e659b03	0.22422414
46	0x3d007f6a	0.03137151
47	0xbe8b0e9f	-0.27159593
48	0xbd863fc3	-0.0655513
49	0x3f392fc2	0.723385
50	0x3dbb27cc	0.0913845
51	0xbf4f7f9f	-0.8105411
52	0xbdb2607c	-0.08709809
53	0x3eaa075e	0.33208746
54	0x3cf59be0	0.029981554
55	0xbeef4464	-0.46731865
56	0xbe51ef78	-0.20501506
57	0xc067d3b5	-3.6222966
58	0x3e533d5b	0.20628874
59	0x40ab5bd5	5.35496
60	0xbe24223c	-0.16028684
61	0xbefa7121	-0.48914436
62	0xbd9c76ee	-0.076398715
63	0x3cce3725	0.02517278
64	0x3e0c199a	0.13681641
65	0xbe374389	-0.17896856
66	0xbcc9af90	-0.024619848
67	0x3da68e2b	0.08132585
68	0x3c93e7a7	0.018054796
69	0x3dd0c9d7	0.10194748
70	0x3c21c9f5	0.00987481
71	0xbd88e2db	-0.06683894
72	0x3da92cc4	0.082604915
73	0xbe5c3c58	-0.21507394
74	0xbb8cd9aa	-0.0042984085
75	0x3e18c4e1	0.14918853
76	0xbd1abb7d	-0.03777646
77	0xbde14f46	-0.11001448
78	0xbc010838	-0.007875495
79	0x3db2b703	0.08726313
80	0xbd15d9c6	-0.036584638
81	0x3ee0592b	0.4381803
82	0x3d88f28e	0.06686889
83	0xbee9d330	-0.45668936
84	0x3b22404f	0.002475757
85	0xbe275d3c	-0.1634416
86	0xbc329f7d	-0.010902283
87	0x3db96ab6	0.090535566
88	0xbbae4c63	-0.0053191646
89	0xbd1a2e5a	-0.03764186
90	0xba6fa25d	-0.00091413205
91	0x3ce591c7	0.028023614
92	0xbb96d453	-0.0046029477
93	0x3eed6e0e	0.46373028
94	0x3cbf8fb6	0.023383956
95	0xbef0de58	-0.47044635
96	0xbd349f6d	-0.044097353
97	0xbf243ce2	-0.641554
98	0x3d0f3761	0.034964923
99	0x3f6da6b5	0.928325
100	0x3c8ba285	0.017045269
101	0xbdb33268	-0.087498486
102	0xbc1ede0d	-0.009696496
103	0x3c9b7ba3	0.018979853
104	0x3e61c1e4	0.2204662
105	0x3e110c68	0.14164889
106	0x3c636af5	0.013880481
107	0x3dd2121d	0.10257361
108	0xbd425f15	-0.04745396
109	0x3f40e13f	0.753437
110	0x3dc91991	0.098193295
111	0xbf5007bb	-0.81261796
112	0x3cd6e9f6	0.026234608
113	0x3d3ca528	0.046055943
114	0xbb4437cc	-0.0029940484
115	0xbcf2f1c0	-0.029656291
116	0xbd1eb89b	-0.038750272
117	0x3f2a107c	0.66431403
118	0x3db79ec5	0.0896583
119	0xbf323298	-0.6960845
120	0x3d6f381b	0.058403116
121	0x3e37f5e1	0.17964889
122	0x3beca86b	0.0072222254
123	0xbe559a50	-0.20859647
124	0x3cd56832	0.02605066
125	0x3c47012f	0.012146278
126	0x3a28a9d5	0.00064339984
127	0x3cf403d3	0.02978698
128	0x3dc6e0b3	0.09710827
129	0xbc91ff17	-0.017821832
130	0xbbc1e182	-0.005916775
131	0x3d54d964	0.051965132
132	0x3d645810	0.055748045
133	0xbdbbb907	-0.091661505
134	0x3c2f6515	0.010705252
135	0x3e0487cc	0.12942427
136	0xbcc3f9f5	-0.0239229
137	0xbe1a7468	-0.15083468
138	0xba971fed	-0.00115299
139	0x3d96b056	0.07357852
140	0x3ca67b3c	0.020322435
141	0x3c8c7a1f	0.017148076
142	0x3c5e41ef	0.0135655245
143	0x3d2f46a1	0.042791966
144	0xbd26994d	-0.040673543
145	0x3e3a189a	0.18173447
146	0x3ca18e7e	0.019721266
147	0xbe908ca3	-0.28232297
148	0x3dd12c75	0.10213558
149	0xbf02ba85	-0.51065856
150	0x3d0a4da9	0.03376547
151	0x3f66e69a	0.9019562
152	0x3d600e44	0.054701105
153	0x3e2b1efd	0.1671104
154	0xbbcace56	-0.006189148
155	0xbe516845	-0.20449932
156	0x3caaf9db	0.020871093
157	0xbb58f5ef	-0.0033105572
158	0xba52c134	-0.0008039654
159	0x3c2dcd1a	0.010607982
160	0xbd675837	-0.056480613
161	0x3f50af34	0.8151734
162	0x3da613f2	0.08109273
163	0xbf5db917	-0.8661055
164	0xbc2d46ff	-0.010576009
165	0xbdf05321	-0.117346056
166	0x3c40ab5b	0.011759604
167	0x3d215384	0.039386287
168	0xbca6da09	-0.02036764
169	0x3eefec63	0.46860036
170	0x3d8270ee	0.06369196
171	0xbf118ebb	-0.56858414
172	0xbca79eca	-0.020461459
173	0xbd69f9bf	-0.057122942
174	0x3b91f35f	0.004454061
175	0x3c6c7343	0.014431777
176	0xbda2fde2	-0.079585806
177	0xbfc87a8c	-1.5662398
178	0x3dba3c3e	0.090935215
179	0x4014d8e2	2.3257375
180	0xbe2d8910	-0.16946816
181	0x3d30e2dc	0.0431851
182	0x3d55cf0a	0.0521994
183	0xbde59d34	-0.11211625
184	0xbe8bda90	-0.27315187
185	0xbed5a663	-0.41728505
186	0xbd714495	-0.058903296
187	0xbd2da511	-0.042393748
188	0xbdb353ce	-0.08756219
189	0x3dad57e9	0.08464033
190	0x3d848a4a	0.06471689
191	0xbc9b9100	-0.01899004
192	0xbcc0092c	-0.023441873
193	0xbd9144b7	-0.070931844
194	0xbc8af543	-0.016962653
195	0x3d82fc63	0.06395795
196	0x80000004	-6e-45
197	0x80000004	-6e-45
198	0x80000004	-6e-45
199	0x80000004	-6e-45
200	0xbc5e992a	-0.013586322
201	0x3ee26a10	0.44221544
202	0x3c241900	0.010015726
203	0xbef72919	-0.48273543
204	0xbd69c138	-0.057069033
205	0x3eca1c61	0.39474776
206	0x3d345fbb	0.04403661
207	0xbec2bafb	-0.3803328
208	0x3c30fcdd	0.010802475
209	0x3e5a7341	0.21333028
210	0x3d14a7db	0.036292892
211	0xbdfcf4d8	-0.12351388
212	0x3c5aa9db	0.013346161
213	0x3ceb9012	0.028755222
214	0xbb225cf0	-0.0024774633
215	0x39f5a46a	0.0004685254
216	0x3ec8f6cb	0.39250788
217	0xbe4d1b60	-0.20029974
218	0xbd92b184	-0.07162765
219	0x3e94fc3c	0.2909869
220	0xbe789573	-0.2427576
221	0xbdaa45cb	-0.08314093
222	0xbd183c57	-0.03716692
223	0xbe0ad880	-0.1355915
224	0xbd01dfde	-0.031707637
225	0x3ece8d8e	0.40342373
226	0x3d4e9a82	0.05044032
227	0xbed694a2	-0.41910273
228	0x3bf15186	0.0073644547
229	0x3caa0902	0.020756248
230	0xbad88e10	-0.001652183
231	0xbce18b4a	-0.027532239
232	0x3cfbfd87	0.03076054
233	0x3e309a7d	0.17246433
234	0x3ae40d70	0.0017399024
235	0xbe3d0e98	-0.18462598
236	0xbd37a8c3	-0.044838678
237	0x3f3d7227	0.7400231
238	0x3dc01746	0.09379439
239	0xbf4c2bf2	-0.79754555
240	0xbe3529f5	-0.17691787
241	0xbef0c1e1	-0.47022918
242	0xbc66f219	-0.0140958065
243	0x3eb6987f	0.3566322
244	0xbd0bc0dd	-0.034119476
245	0x3e2045fa	0.15651694
246	0x3c6774c3	0.014126959
247	0xbe4c2cbb	-0.19938938
248	0xbd047f9f	-0.03234827
249	0x3f05c973	0.5226051
250	0x3d89771e	0.06712173
251	0xbf0b3577	-0.54378456
252	0x3c00dc39	0.007865005
253	0x3f075c62	0.5287534
254	0x3d0c4668	0.034246832
255	0xbf01b9ab	-0.5067393

exp_avg_sq f4 [64, 4]
0	0x3d5d4471	0.05402035
1	0x4090f5fc	4.5300274
2	0x3d0a52a4	0.03377022
3	0x411d9bfb	9.850581
4	0x3f71fc28	0.94525385
5	0x3fbc419b	1.4707521
6	0x3c8aed84	0.01695896
7	0x3fc77662	1.5583003
8	0x405f96fc	3.4935904
9	0x413f6793	11.962787
10	0x3f1b2e45	0.60617477
11	0x41aa19cd	21.262598
12	0x3ea55696	0.32292622
13	0x3eb0712e	0.3446135
14	0x3ba626be	0.0050705364
15	0x3e841c3c	0.2580279
16	0x3e8150de	0.2525701
17	0x3ea2e06a	0.3181184
18	0x3bf3d939	0.0074416664
19	0x3ebc9309	0.3683093
20	0x3fdc0be9	1.7191135
21	0x405bdf40	3.435501
22	0x3cafa650	0.021441609
23	0x406d90bd	3.7119591
24	0x4042d92e	3.0445056
25	0x40ba9cd5	5.8316445
26	0x3da819a6	0.08208017
27	0x40ca6e52	6.325967
28	0x40797358	3.897665
29	0x40f29366	7.580493
30	0x3de8105d	0.11331246
31	0x41041f2a	8.257608
32	0x3e513246	0.20429334
33	0x3f208a4f	0.6271104
34	0x3c0b9994	0.008520503
35	0x3f464a70	0.7745733
36	0x3fa18140	1.2617569
37	0x3f7263f2	0.94683754
38	0x3b815327	0.00394668
39	0x3f26009f	0.648447
40	0x3fe73d7e	1.8065641
41	0x40da7db8	6.8278465
42	0x3e4a1395	0.19734032
43	0x413cf50e	11.809828
44	0x3f4bf158	0.79665136
45	0x3fb6d5d8	1.428401
46	0x3cafe42d	0.021471107
47	0x3fbd1848	1.4773035
48	0x40ba8882	5.8291636
49	0x4130d649	11.052316
50	0x3e277da5	0.16356523
51	0x413b0bfa	11.690424
52	0x3fdae6bf	1.7101668
53	0x40205555	2.5052083
54	0x3d264f6f	0.040603098
55	0x400100bd	2.01567
56	0x40ba47c9	5.821263
57	0x4152e3e7	13.18064
58	0x3fc95409	1.572877
59	0x41dc30f0	27.523895
60	0x4064846e	3.5705829
61	0x409da74b	4.9266715
62	0x3d5e789c	0.05431424
63	0x3fbddd81	1.4833223
64	0x41b0e599	22.112108
65	0x4161afb3	14.105395
66	0x3dbd0411	0.09229291
67	0x3f594947	0.8487744
68	0x3efed74d	0.49773636
69	0x3ee478ad	0.44623318
70	0x3bb4fc1b	0.0055232174
71	0x3dd21d76	0.102595255
72	0x4162773d	14.154111
73	0x41407288	12.027962
74	0x3dff023b	0.12451597
75	0x40150040	2.3281403
76	0x3e1e0c29	0.15434326
77	0x3e526124	0.20544869
78	0x3b60cb1b	0.0034300748
79	0x3dac0f06	0.08401303
80	0x4040e2d7	3.0138452
81	0x40ad8852	5.4228907
82	0x3da13bf0	0.0787276
83	0x40af2407	5.473148
84	0x40c5f1d3	6.1857696
85	0x4079d741	3.903763
86	0x3dc65957	0.09685009
87	0x3fd8aad6	1.6927135
88	0x3dc21ca7	0.09478121
89	0x3e2c267e	0.16811559
90	0x3bec2d2f	0.0072075347
91	0x3e93fbd1	0.28903058
92	0x40011ce6	2.0173888
93	0x4041b6d2	3.0267835
94	0x3d26aab2	0.04069013
95	0x402554b3	2.5832946
96	0x40a925f5	5.2858834
97	0x40949750	4.643471
98	0x3e486b9e	0.19572303
99	0x40de23ab	6.941854
100	0x40617920	3.523018
101	0x408d270a	4.4110155
102	0x3d3eda89	0.04659513
103	0x3e94af6f	0.29040095
104	0x40ce1969	6.440602
105	0x40eac634	7.3366947
106	0x3e1b669c	0.15175861
107	0x3f11a751	0.5689593
108	0x40b4f746	5.6551847
109	0x4133ccac	11.237469
110	0x3e26e5a8	0.16298544
111	0x41449c49	12.288156
112	0x3d074932	0.03302879
113	0x3e16e886	0.14737138
114	0x3ada0df3	0.0016636237
115	0x3e20fd55	0.15721639
116	0x4096b23e	4.709258
117	0x41113c0a	9.077158
118	0x3e045ed0	0.12926793
119	0x411cd95e	9.803068
120	0x3ff04004	1.8769536
121	0x3fd8bab7	1.6931981
122	0x3c9ced5f	0.019156156
123	0x3f321142	0.69557583
124	0x3f077e35	0.5292695
125	0x3e21b0a4	0.1579004
126	0x3b2a007a	0.0025940225
127	0x3e8986a7	0.26860544
128	0x3f03558f	0.5130243
129	0x3ed6163a	0.41813833
130	0x3bb8ec17	0.0056433785
131	0x3f04f9c2	0.519436
132	0x3f8e222a	1.1104176
133	0x40012bea	2.0183053
134	0x3cae6577	0.021288617
135	0x3f80b9ca	1.0056698
136	0x3f8b5d99	1.0887939
137	0x4046bce2	3.1052785
138	0x3c943656	0.018092316
139	0x404a9485	3.165315
140	0x3e83a5cc	0.2571243
141	0x3e728ee1	0.23687316
142	0x3b13f774	0.0022577913
143	0x3dc53574	0.09629336
144	0x3eedc443	0.46438798
145	0x3f859cc2	1.0438464
146	0x3c94d872	0.018169615
147	0x3f93d55b	1.1549486
148	0x3f667ee0	0.90037346
149	0x3f8b5bf1	1.0887433
150	0x3d2e7d90	0.042600214
151	0x3f606e71	0.8766852
152	0x3e4a5f5c	0.19762939
153	0x3e315466	0.17317352
154	0x3aff7614	0.0019490146
155	0x3d4b5e78	0.04965064
156	0x3f4046e1	0.7510815
157	0x3eae8ba7	0.3409092
158	0x3acc2cb1	0.0015577284
159	0x3db0795d	0.08616898
160	0x40ce11b5	6.4396615
161	0x413806f1	11.501695
162	0x3e2a9653	0.16658907
163	0x4137bf6f	11.484237
164	0x3de250d7	0.11050575
165	0x4046aaec	3.1041822
166	0x3cecc115	0.028900662
167	0x40b8183e	5.7529593
168	0x3fe9bac3	1.826012
169	0x40ad85bb	5.4225745
170	0x3dba9252	0.0910994
171	0x40dc58be	6.885833
172	0x3f35e237	0.710483
173	0x40648a4a	3.5709405
174	0x3ca34e95	0.019934932
175	0x409c0495	4.8755593
176	0x404501e7	3.078241
177	0x4102e588	8.181038
178	0x3ebcfa30	0.36909628
179	0x41483c69	12.514749
180	0x407a2d83	3.9090278
181	0x40e420f6	7.1290236
182	0x3e1c40cf	0.15259098
183	0x40f1af65	7.5526605
184	0x3f53dcfd	0.82759076
185	0x3f2c7f7e	0.6738204
186	0x3bce25a6	0.006291109
187	0x3e0c5dd3	0.13707666
188	0x402d34c3	2.7063453
189	0x411907e9	9.564431
190	0x3e843009	0.25817898
191	0x418983ce	17.189358
192	0x3e42232e	0.18958732
193	0x3f1c80cf	0.61134046
194	0x3c3c43b9	0.011490756
195	0x3f60676d	0.87657815
196	0x000001f4	7e-43
197	0x000001f4	7e-43
198	0x000001f4	7e-43
199	0x000001f4	7e-43
200	0x40433cee	3.0505939
201	0x407f984c	3.9936705
202	0x3d767fe2	0.060180552
203	0x4013306b	2.2998302
204	0x3fc22896	1.5168636
205	0x404a21f8	3.1583233
206	0x3d1b9a21	0.037988786
207	0x404d4e5b	3.2079074
208	0x3f799416	0.97491586
209	0x3f9e2545	1.2355124
210	0x3c50cf60	0.012744755
211	0x3f905961	1.1277276
212	0x3e0a5116	0.13507494
213	0x3e2ee644	0.17080027
214	0x3c301296	0.010746619
215	0x3e1b207a	0.15149108
216	0x409e21ec	4.941641
217	0x40d43203	6.631105
218	0x3e8b3174	0.27186167
219	0x40cac598	6.3366203
220	0x405441bf	3.3165128
221	0x409e0cd7	4.9390674
222	0x3d078f93	0.033095907
223	0x40de3151	6.94352
224	0x40209e76	2.5096717
225	0x40867f1e	4.203017
226	0x3d7cace6	0.061688326
227	0x407a70c4	3.9131327
228	0x3dc45254	0.09586015
229	0x3d955267	0.072911076
230	0x39fdc69c	0.00048403896
231	0x3d63b26b	0.055590075
232	0x3e878a4e	0.26472706
233	0x3e82cb7a	0.25545865
234	0x3b8d3fa1	0.0043105637
235	0x3de7459b	0.11292573
236	0x40ae93bb	5.4555335
237	0x4129adb6	10.60491
238	0x3e1e1651	0.154382
239	0x41351f91	11.320207
240	0x3f6f9652	0.93588746
241	0x3f490736	0.7852663
242	0x3c21011e	0.0098269265
243	0x3eb36fcb	0.3504623
244	0x3ec543bc	0.3852824
245	0x3f105d19	0.56392056
246	0x3c16b231	0.009197758
247	0x3f057233	0.5212738
248	0x405731d5	3.3624165
249	0x40c11cce	6.034766
250	0x3db7ee4b	0.08980998
251	0x40c425fe	6.1296377
252	0x401bd991	2.4351542
253	0x406fdc38	3.747816
254	0x3d4252dc	0.047442302
255	0x405c9f45	3.447221

exp_avg f4 [64]
0	0xc0079898	-2.1186886
1	0x3e845f22	0.2585383
2	0xbfd39066	-1.6528442
3	0xbe5fd328	-0.21857893
4	0xbe68cd23	-0.22734503
5	0x3eb5eca8	0.35532117
6	0x3e81b9de	0.25337118
7	0xbd865929	-0.06559975
8	0x3dc2df77	0.09515279
9	0xbe466a31	-0.19376446
10	0xbf2b4b9f	-0.66912264
11	0x3cf0453f	0.029329894
12	0x3dbbc36e	0.09168135
13	0x3eed6748	0.4636786
14	0xc042a2d9	-3.0411894
15	0xbf73af87	-0.9518971
16	0xbddb426d	-0.10706029
17	0x3e16abad	0.14713927
18	0xbd0070dd	-0.031357635
19	0x3d0aa6ec	0.033850595
20	0xbdd553d0	-0.104163766
21	0xbd978acf	-0.073995225
22	0x3cce5688	0.025187746
23	0xbddb731f	-0.10715317
24	0xbf04adca	-0.5182768
25	0xbd8c3f84	-0.06848052
26	0xbdefe407	-0.11713415
27	0x3de60770	0.11231887
28	0xbc120896	-0.00891318
29	0x3daff7cc	0.085921854
30	0x3eda6410	0.42654467
31	0xbd8348b6	-0.06410353
32	0xbe45d626	-0.19319972
33	0x3ce767a9	0.028247671
34	0x3d48e293	0.049044203
35	0x3e0bbc5d	0.13646074
36	0xbcfcacf0	-0.030844182
37	0xbf166d2e	-0.58760345
38	0x3e0030ad	0.12518568
39	0x3cd1eaaf	0.025624601
40	0x3d79496d	0.06086104
41	0x3cb57c69	0.02215405
42	0xbe0be2b7	-0.13660704
43	0xbb9f6747	-0.0048646065
44	0xbfacff4c	-1.351541
45	0x3e012107	0.12610255
46	0xbf47cad4	-0.78043866
47	0x3e69e5ef	0.22841619
48	0x3ed58445	0.41702476
49	0x00000004	6e-45
50	0xbe537443	-0.20649819
51	0xbe3b14e7	-0.18269692
52	0x3ed06cca	0.40708
53	0x3c9baaa5	0.019002268
54	0x3e7b6e61	0.24553825
55	0xbf97c679	-1.1857444
56	0xbe19c15f	-0.15015171
57	0xbc9a8b21	-0.01886517
58	0x3e304666	0.17214355
59	0x3ddb18c3	0.10698082
60	0xbf08c851	-0.5343066
61	0x3e49e4b6	0.19716153
62	0xbd2dd76b	-0.042441767
63	0xbc82dd74	-0.015974738

exp_avg_sq f4 [64]
0	0x406d0b4b	3.7038143
1	0x410945fb	8.579585
2	0x41bf2f27	23.898024
3	0x3fc16b71	1.5110914
4	0x3ef52c98	0.47885585
5	0x411b1c78	9.69445
6	0x4214b0ec	37.172775
7	0x423ff847	47.99246
8	0x4063f640	3.561905
9	0x3f17f978	0.59365034
10	0x41265f18	10.398216
11	0x4107b6b2	8.482103
12	0x4286d18a	67.409256
13	0x41314918	11.080345
14	0x42313785	44.30422
15	0x412cc8ed	10.799054
16	0x40ee7f04	7.453005
17	0x3f232614	0.6372998
18	0x410a8f76	8.660025
19	0x3eb75273	0.3580509
20	0x420326f4	32.78804
21	0x408431ad	4.131064
22	0x3e95fa2e	0.29292434
23	0x412999e5	10.600072
24	0x4123d55f	10.239593
25	0x4088f77f	4.280212
26	0x409c3183	4.881044
27	0x428f9194	71.78433
28	0x3e253959	0.16135158
29	0x42662d6e	57.544365
30	0x4099a41b	4.8012824
31	0x3fee40b5	1.8613497
32	0x4094ed62	4.6539774
33	0x3f8fc611	1.123232
34	0x40318043	2.7734535
35	0x3ecefe80	0.40428543
36	0x40c9a5dd	6.301497
37	0x40380ae2	2.8756642
38	0x3dbe2923	0.0928519
39	0x3e2351d9	0.15949191
40	0x4276aa89	61.66654
41	0x406c2364	3.68966
42	0x421d3506	39.30178
43	0x407a6f77	3.9130533
44	0x415bfc12	13.749041
45	0x41be6e76	23.803936
46	0x3ffe8731	1.9885007
47	0x41ffea1c	31.989311
48	0x40a049f6	5.0090284
49	0x000001f4	7e-43
50	0x40e7f558	7.248699
51	0x418812d4	17.009193
52	0x40c288b1	6.079186
53	0x3eb56a41	0.35432628
54	0x4242cbb9	48.698948
55	0x4214aaa4	37.16664
56	0x41b2139f	22.25958
57	0x3d570586	0.052495502
58	0x3ef1d31f	0.47231385
59	0x4284d81d	66.4221
60	0x3f8aba15	1.0838038
61	0x40222495	2.5334828
62	0x420d99d7	35.400234
63	0x4172236b	15.133647

exp_avg f4 [64, 64]
0	0x3bdf5f8e	0.006816811
1	0xbe22b426	-0.15889034
2	0x3c1c3c08	0.009535797
3	0xb9565838	-0.00020441494
4	0xbb18e1a8	-0.002332786
5	0xbd46be9b	-0.04852162
6	0xbe2423d0	-0.16029286
7	0xbe584277	-0.21119104
8	0xbd6045ad	-0.054753948
9	0x3be8cc17	0.0071044075
10	0x3c8d1d57	0.017225904
11	0xbdcc72da	-0.09982844
12	0xbe83af8e	-0.25719875
13	0xbde4b7c2	-0.111678615
14	0x388e89dc	6.796766e-05
15	0xbd1808ec	-0.037117884
16	0xbc0408e6	-0.008058762
17	0xbd1f01f6	-0.03882023
18	0xbc052429	-0.008126297
19	0xbb9afc77	-0.004729803
20	0xbe557737	-0.20846258
21	0xbc150f0f	-0.0090978285
22	0xbc557289	-0.013027796
23	0xbe177575	-0.147909
24	0x3c197565	0.009366368
25	0xbc4d85d7	-0.012544117
26	0xab56b171	-7.627432e-13
27	0xbe7461f7	-0.23865496
28	0x3caa7372	0.020807002
29	0xbe583769	-0.21114887
30	0xbd18fc34	-0.037349895
31	0x3adab8f9	0.0016687206
32	0xb939194d	-0.000176524
33	0xb72909f0	-1.0075499e-05
34	0xb9c5f6cd	-0.0003775865
35	0xbcd35688	-0.025798097
36	0xbd7bb7b2	-0.061454482
37	0x3ad875de	0.0016514619
38	0x3c523312	0.012829559
39	0x39ae1d0a	0.00033209502
40	0xbe54ac1b	-0.20768778
41	0x3509c584	5.13239e-07
42	0xbdc417d6	-0.09574859
43	0xba2d94eb	-0.0006621617
44	0x3bf53157	0.0074826884
45	0xbe28da91	-0.16489626
46	0xbcf3d177	-0.029762967
47	0xbe7edc99	-0.24888839
48	0xbd182db4	-0.03715296
49	0x00000000	0.0
50	0xbdf54f68	-0.11978036
51	0xbd781c03	-0.06057359
52	0xbdf0bc62	-0.11754681
53	0xbccbef6b	-0.024894437
54	0xbc1ceede	-0.009578435
55	0xbcbc2580	-0.0229671
56	0xbe084d7b	-0.13310806
57	0xbc52ac11	-0.012858407
58	0xbd58f0fe	-0.052964203
59	0xbe6afe9e	-0.22948691
60	0xbc970324	-0.018434115
61	0xbd81ee2a	-0.06344254
62	0xbe13d0df	-0.14435147
63	0xbe369016	-0.17828402
64	0x0e31712e	2.1871428e-30
65	0x3e216948	0.15762818
66	0xb976a667	-0.00023522378
67	0x3d0f6069	0.035004053
68	0x3b1bbebc	0.002376481
69	0x3d60f2e2	0.05491913
70	0x3e4ed665	0.20198973
71	0x3e5fe97d	0.21866412
72	0x3d912809	0.07087714
73	0xb873499e	-5.8004276e-05
74	0xba77a72c	-0.0009447213
75	0x3dd69147	0.10476928
76	0x3e85bbf2	0.26119953
77	0x3e02126b	0.12702338
78	0x00000004	6e-45
79	0x3d244b3e	0.04011082
80	0x3b19c636	0.002346409
81	0x3d5c58a8	0.053795487
82	0x3c39d61c	0.011342552
83	0x3c8f822a	0.017518122
84	0x3e833dfb	0.25633225
85	0xb74e792a	-1.23067675e-05
86	0x3b6b886b	0.0035939466
87	0x3e28b41d	0.16474958
88	0x378f02fa	1.7048314e-05
89	0x3a9bc8e8	0.0011885436
90	0x3be09fbf	0.0068549807
91	0x3e85e74e	0.26153034
92	0x3c1504b9	0.009095364
93	0x3e780758	0.24221551
94	0x3d2a704b	0.041610997
95	0x3c9fc481	0.01950288
96	0x3cfb910b	0.03070881
97	0x3c3e2c84	0.011607293
98	0x3bfa2c17	0.0076346505
99	0x3d2c3684	0.042044178
100	0x3d92ee04	0.07174304
101	0x3cb93d7a	0.022612322
102	0x3c27bcf1	0.010237918
103	0x39facd7e	0.0004783682
104	0x3e81d2a0	0.25356007
105	0x3ba5574d	0.0050458075
106	0x3dea2e9d	0.11434672
107	0x3c0a280e	0.008432401
108	0x37faff4e	2.9921208e-05
109	0x3e2d0b40	0.16898823
110	0x3ce905e4	0.028445192
111	0x3e881621	0.26579383
112	0x3d70973a	0.05873797
113	0x00000004	6e-45
114	0x3e11fd7a	0.1425685
115	0x3d95701a	0.07296772
116	0x3e04db61	0.12974311
117	0x3c903ee4	0.017608114
118	0x3d448199	0.047975156
119	0x3cdbdefd	0.026839728
120	0x3e2209a1	0.15823986
121	0x3c33184d	0.010931087
122	0x3db112bb	0.08646151
123	0x3e74b336	0.23896489
124	0x3c5eab20	0.013590604
125	0x3d845f67	0.06463509
126	0x3e2a1472	0.16609362
127	0x3e466235	0.193734
128	0x00000004	6e-45
129	0x00000000	0.0
130	0x00000004	6e-45
131	0x00000000	0.0
132	0x00000004	6e-45
133	0x00000004	6e-45
134	0x00000004	6e-45
135	0x00000000	0.0
136	0x00000004	6e-45
137	0x00000004	6e-45
138	0x00000004	6e-45
139	0x00000000	0.0
140	0x00000000	0.0
141	0x00000004	6e-45
142	0x00000004	6e-45
143	0x00000000	0.0
144	0x00000000	0.0
145	0x00000004	6e-45
146	0x00000000	0.0
147	0x00000000	0.0
148	0x00000004	6e-45
149	0x00000004	6e-45
150	0x00000000	0.0
151	0x00000004	6e-45
152	0x00000004	6e-45
153	0x00000004	6e-45
154	0x00000004	6e-45
155	0x00000004	6e-45
156	0x00000004	6e-45
157	0x00000004	6e-45
158	0x00000000	0.0
159	0x00000004	6e-45
160	0x00000000	0.0
161	0x00000000	0.0
162	0x00000000	0.0
163	0x00000004	6e-45
164	0x00000000	0.0
165	0x00000004	6e-45
166	0x00000004	6e-45
167	0x00000000	0.0
168	0x00000004	6e-45
169	0x00000000	0.0
170	0x00000004	6e-45
171	0x00000000	0.0
172	0x00000004	6e-45
173	0x00000000	0.0
174	0x00000004	6e-45
175	0x00000004	6e-45
176	0x00000004	6e-45
177	0x00000000	0.0
178	0x00000004	6e-45
179	0x00000004	6e-45
180	0x00000004	6e-45
181	0x00000000	0.0
182	0x00000004	6e-45
183	0x00000004	6e-45
184	0x00000004	6e-45
185	0x00000000	0.0
186	0x00000004	6e-45
187	0x00000004	6e-45
188	0x00000004	6e-45
189	0x00000004	6e-45
190	0x00000004	6e-45
191	0x00000004	6e-45
192	0x3bad3ea9	0.0052870107
193	0xb9c6c480	-0.00037911907
194	0x3bc6f039	0.0060711172
195	0x00000004	6e-45
196	0x3be52c06	0.0069937734
197	0x0e902e7f	3.5543515e-30
198	0x3cec60b4	0.028854705
199	0x3c35146c	0.011052232
200	0x3c4fb7a8	0.012678064
201	0x3c04779c	0.008085158
202	0x3c301c5d	0.01074895
203	0x3b9142e4	0.004433023
204	0x3c296390	0.010338679
205	0x3c1fc6c6	0.009751981
206	0x39875d79	0.0002581885
207	0x80000004	-6e-45
208	0x00000000	0.0
209	0x3c88eba3	0.016713923
210	0x00000004	6e-45
211	0x3b23118e	0.002488229
212	0x3d1372df	0.03599822
213	0x3902286f	0.00012412829
214	0xa42da4c8	-3.765297e-17
215	0x3d022709	0.031775508
216	0x3bd4621a	0.006481421
217	0x8001a4ad	-1.5091e-40
218	0x00000004	6e-45
219	0x3cc3a9c6	0.023884665
220	0x3c7f5873	0.015585053
221	0x3cebe7db	0.02879708
222	0x3b9b0595	0.00473089
223	0x3595dde4	1.1165944e-06
224	0x352635f5	6.1918337e-07
225	0x80000004	-6e-45
226	0x80000004	-6e-45
227	0x80000004	-6e-45
228	0x3a7633b4	0.00093918596
229	0x3a370234	0.0006981224
230	0x3c9f2906	0.019428741
231	0x80000004	-6e-45
232	0x3d48fa90	0.04906708
233	0x00000004	6e-45
234	0x3b5bb4c3	0.003352449
235	0x80000004	-6e-45
236	0x3ba175f5	0.0049273917
237	0x3a108f3e	0.0005514509
238	0x80000004	-6e-45
239	0x3a664a19	0.0008784845
240	0x3c9e1f16	0.019301932
241	0x00000000	0.0
242	0x3cda917a	0.026680697
243	0x3c062d32	0.008189486
244	0x3c9bb518	0.01900725
245	0xa5dab036	-3.7936377e-16
246	0xba064dac	-0.00051232683
247	0x80000004	-6e-45
248	0x3ccb2310	0.024796993
249	0x00000004	6e-45
250	0x3cc6d266	0.024270248
251	0x3ca3dd0d	0.020002866
252	0x3a649849	0.0008720202
253	0x3c3543ed	0.011063558
254	0x3cda9178	0.026680693
255	0x3d15e17f	0.036592003

exp_avg_sq f4 [64, 64]
0	0x3869a82c	5.570815e-05
1	0x3ef3246e	0.4748873
2	0x3a07a09a	0.0005173773
3	0x3bb11ae3	0.0054048165
4	0x3d858d36	0.065210745
5	0x3e1a8492	0.15089634
6	0x3f201e29	0.6254602
7	0x3f60f72d	0.8787716
8	0x3db4e9cf	0.08833658
9	0x3bb9c3dc	0.0056691
10	0x3a934eed	0.0011238732
11	0x3e507df3	0.20360546
12	0x3fa49916	1.2859218
13	0x3e920332	0.28518063
14	0x392ad7d6	0.00016292869
15	0x3e563716	0.20919451
16	0x3cdec7f3	0.027194953
17	0x3dd58de7	0.10427456
18	0x3c8886a6	0.016665768
19	0x3b1ed4f0	0.0024235807
20	0x3f78d8e5	0.97205955
21	0x3cc9f722	0.024653975
22	0x3c8cb6d1	0.017177017
23	0x3f1f689c	0.62268996
24	0x3aa24138	0.0012379056
25	0x3d65ff43	0.05615164
26	0x32d67f64	2.497081e-08
27	0x3f9529f8	1.1653433
28	0x3c073474	0.008252252
29	0x3f77ad67	0.96748966
30	0x3e1c4e3a	0.15264216
31	0x3a19c922	0.0005866458
32	0x3bc35075	0.005960519
33	0x356b3569	8.7622044e-07
34	0x383fbad3	4.5711942e-05
35	0x3daed8f9	0.08537478
36	0x3d965544	0.07340482
37	0x3ac7bf40	0.0015239492
38	0x3ca0ff15	0.019652883
39	0x3b419c98	0.00295428
40	0x3f99c19b	1.2012209
41	0x366dd16f	3.5437658e-06
42	0x3e30ba58	0.17258584
43	0x393e985b	0.00018176569
44	0x39cb4218	0.0003876842
45	0x3f09930f	0.5374002
46	0x3e22dd2c	0.15904683
47	0x3f8918b5	1.0710665
48	0x3d834198	0.064089954
49	0x00000000	0.0
50	0x3ec2b431	0.380281
51	0x3d82f347	0.06394058
52	0x3ebd0c75	0.36923566
53	0x3d9c174e	0.076216325
54	0x3c5f7d83	0.013640764
55	0x3df5ca7d	0.12001512
56	0x3ed45a61	0.41475204
57	0x3d18016d	0.037110735
58	0x3deba393	0.11505809
59	0x3f9614e3	1.1725124
60	0x3dc0740d	0.09397135
61	0x3e1aba76	0.15110192
62	0x3f05dda1	0.52291304
63	0x3f7b5ab7	0.98185295
64	0x31d29ae2	6.1294125e-09
65	0x3eb77cbe	0.35837358
66	0x376b1fbd	1.4014481e-05
67	0x3d644d5e	0.055737846
68	0x3a98a8a2	0.0011646936
69	0x3c979800	0.018505096
70	0x3ee19076	0.44055527
71	0x3f42b8f6	0.7606348
72	0x3d924ad5	0.07143179
73	0x36e40979	6.7960323e-06
74	0x38dfcefa	0.00010672021
75	0x3e372e7a	0.17888823
76	0x3f8a87a7	1.0822648
77	0x3e5a116d	0.2129571
78	0x311c037f	2.2702975e-09
79	0x3c9343ed	0.017976725
80	0x35bc15fe	1.4013492e-06
81	0x3ceef632	0.02917013
82	0x3a3bb1b0	0.00071599614
83	0x3c1a62de	0.009422986
84	0x3f2df0f7	0.6794581
85	0x36a270ff	4.8411307e-06
86	0x3baaee20	0.005216375
87	0x3ec8ff8a	0.3925746
88	0x38dd5940	0.00010554725
89	0x38380ece	4.3882806e-05
90	0x3b1dd15a	0.0024081082
91	0x3f635887	0.88806957
92	0x3ba76e36	0.0051095737
93	0x3f36615e	0.7124232
94	0x3c85623e	0.016282197
95	0x3cb76a85	0.02238966
96	0x3d46cf30	0.048537433
97	0x3babc08f	0.0052414606
98	0x3b42093f	0.0029607562
99	0x3d949d5f	0.07256579
100	0x3d9abc9c	0.07555506
101	0x3ce63414	0.028101005
102	0x3c476e15	0.012172242
103	0x37059e48	7.9642705e-06
104	0x3f526d5c	0.8219812
105	0x3a920a62	0.001114201
106	0x3e2ebbc9	0.17063822
107	0x3b72d025	0.0037050333
108	0x35d1af64	1.5622759e-06
109	0x3eec5cf6	0.46164674
110	0x3c336ff4	0.010951985
111	0x3f74c6e3	0.9561598
112	0x3d27f1fc	0.04100226
113	0x000001f4	7e-43
114	0x3e85bcbe	0.2612056
115	0x3d077673	0.033071946
116	0x3e5ecec6	0.21758565
117	0x3d6f3089	0.058395896
118	0x3db45b8b	0.08806523
119	0x3c2e9dd4	0.010657746
120	0x3e96a275	0.2942082
121	0x3d6bcccb	0.057568353
122	0x3d8333c4	0.06406358
123	0x3f6ea35b	0.9321801
124	0x3b87ab2e	0.0041402793
125	0x3ddb9d5d	0.10723374
126	0x3ebfc19a	0.37452394
127	0x3f12af5d	0.57298833
128	0x000001f4	7e-43
129	0x00000000	0.0
130	0x000001f4	7e-43
131	0x00000000	0.0
132	0x000001f4	7e-43
133	0x000001f4	7e-43
134	0x000001f4	7e-43
135	0x00000000	0.0
136	0x000001f4	7e-43
137	0x000001f4	7e-43
138	0x000001f4	7e-43
139	0x00000000	0.0
140	0x00000000	0.0
141	0x000001f4	7e-43
142	0x000001f4	7e-43
143	0x00000000	0.0
144	0x00000000	0.0
145	0x000001f4	7e-43
146	0x00000000	0.0
147	0x00000000	0.0
148	0x000001f4	7e-43
149	0x000001f4	7e-43
150	0x00000000	0.0
151	0x000001f4	7e-43
152	0x000001f4	7e-43
153	0x000001f4	7e-43
154	0x000001f4	7e-43
155	0x000001f4	7e-43
156	0x000001f4	7e-43
157	0x000001f4	7e-43
158	0x00000000	0.0
159	0x000001f4	7e-43
160	0x00000000	0.0
161	0x00000000	0.0
162	0x00000000	0.0
163	0x000001f4	7e-43
164	0x00000000	0.0
165	0x000001f4	7e-43
166	0x000001f4	7e-43
167	0x00000000	0.0
168	0x000001f4	7e-43
169	0x00000000	0.0
170	0x000001f4	7e-43
171	0x00000000	0.0
172	0x000001f4	7e-43
173	0x00000000	0.0
174	0x000001f4	7e-43
175	0x000001f4	7e-43
176	0x000001f4	7e-43
177	0x00000000	0.0
178	0x000001f4	7e-43
179	0x000001f4	7e-43
180	0x000001f4	7e-43
181	0x00000000	0.0
182	0x000001f4	7e-43
183	0x000001f4	7e-43
184	0x000001f4	7e-43
185	0x00000000	0.0
186	0x000001f4	7e-43
187	0x000001f4	7e-43
188	0x000001f4	7e-43
189	0x000001f4	7e-43
190	0x000001f4	7e-43
191	0x000001f4	7e-43
192	0x3a10f19f	0.00055291684
193	0x3b29cb6c	0.0025908602
194	0x3b06c150	0.0020562
195	0x000001f4	7e-43
196	0x3ab6eb2a	0.0013955582
197	0x3196aa52	4.3849377e-09
198	0x3d151965	0.03640117
199	0x3cdcc3b7	0.026948793
200	0x3c3f1bee	0.011664374
201	0x3a9c052b	0.0011903396
202	0x3b9adff0	0.0047264025
203	0x3b7c622b	0.003851066
204	0x3cd79e16	0.026320498
205	0x3b7fd3aa	0.0039036074
206	0x3990addd	0.0002759536
207	0x159efc46	6.421371e-26
208	0x00000000	0.0
209	0x3c5e9ff0	0.013587937
210	0x000001f4	7e-43
211	0x3912c1e3	0.00013995873
212	0x3d88876d	0.066664554
213	0x37b91b8e	2.206655e-05
214	0x398f78c1	0.00027365054
215	0x3d94df51	0.07269157
216	0x3b8d2687	0.0043075713
217	0x35cd4fa1	1.5296865e-06
218	0x000001f4	7e-43
219	0x3d40efef	0.04710382
220	0x3bd6b247	0.006552014
221	0x3d623290	0.055224
222	0x3a09a0d8	0.0005250103
223	0x341b74da	1.447801e-07
224	0x33c8ee98	9.356626e-08
225	0x000001f4	7e-43
226	0x000001f4	7e-43
227	0x1c8ad183	9.186231e-22
228	0x394dac15	0.00019614429
229	0x391d8deb	0.00015025555
230	0x3c1a3165	0.009411191
231	0x00002c18	1.5818e-41
232	0x3e1872c7	0.14887534
233	0x000001f4	7e-43
234	0x3a8288e9	0.0009959015
235	0x000001f4	7e-43
236	0x3a9ad871	0.0011813772
237	0x3a0876c4	0.0005205686
238	0x280f8e41	7.968941e-15
239	0x3a456dba	0.0007531304
240	0x3cba24d4	0.02272264
241	0x00000000	0.0
242	0x3d4ffbab	0.05077712
243	0x3b055be6	0.0020348965
244	0x3cbd55c1	0.02311218
245	0x3a920c6e	0.001114262
246	0x3978ccb6	0.00023727384
247	0x2c47854e	2.83536e-12
248	0x3d2e6637	0.04257795
249	0x000001f4	7e-43
250	0x3c8df205	0.017327318
251	0x3d468623	0.048467766
252	0x38b05b9d	8.409398e-05
253	0x3c25626c	0.010094266
254	0x3d5baa8c	0.053629443
255	0x3dc7e20a	0.097599104
