dqn_trained_model.pth (torch, 63431 bytes, 18 tensors)

net.fc1.weight f4 [64, 4]
000000 c7 88 83 3e 8f a2 95 3d 13 34 36 c0 e2 0e ec be
       0.2569029 0.07306396 -2.8469284 -0.46105105
000010 2e ca 97 bc b4 f2 f3 3e 30 92 de bc 56 6b 04 3f
       -0.018529024 0.47646105 -0.027169317 0.5172628
000020 e7 d1 43 3c 0a f2 ae bc 61 b7 23 c0 e7 e1 17 be
       0.0119519 -0.021355648 -2.5580676 -0.14832269
000030 e7 c8 ae bf 5d e7 f2 be bd 8f dc bf 90 9e a3 be
       -1.365506 -0.4744214 -1.7231365 -0.3195691
000040 77 d9 fc 3e 8d d5 0f 3e a0 02 cc bf fd 53 5f be
       0.49384663 0.14046307 -1.5938301 -0.21809383
000050 3a 1a d4 3e cb c4 69 3f a7 09 89 3e 66 55 29 3f
       0.4142626 0.9131591 0.26765177 0.6614593
000060 85 bd 28 be bb eb 29 be 65 ab d7 3f 4a f7 81 be
       -0.16478546 -0.1659383 1.684918 -0.2538398
000070 ca fb 1e be 51 83 f4 bd 69 8a 47 bf cf 4d 47 3e
       -0.15525737 -0.11939109 -0.7794557 0.19463275
000080 14 eb d8 be 7e f8 cf be 17 5d f5 be 86 d5 86 be
       -0.4236685 -0.40619272 -0.47922584 -0.2633478
000090 cc de c3 3e 65 31 14 3f 93 4a 69 bf 5c f9 92 3e
       0.38255918 0.5788787 -0.91129416 0.2870587
0000a0 d0 0f 0c 3d 83 2f f3 bd 45 22 47 c0 96 30 04 bf
       0.034194767 -0.118742965 -3.1114666 -0.51636636
0000b0 56 12 9b bd 7b d6 52 be e6 fc df bc f9 b4 a4 bd
       -0.07571857 -0.2058963 -0.027342271 -0.0804233
0000c0 0e ad d8 3c 55 ad a1 3c 12 bb e1 bd 55 97 97 3e
       0.026449706 0.019735971 -0.11022009 0.29607645
0000d0 31 9b ee 3d 66 0c f2 bd ee 18 eb 3f 35 29 de bd
       0.11650694 -0.11818771 1.8366983 -0.10847703
0000e0 ba 8b 6f 3e 5c 78 94 be fc dd 04 c0 38 3c a2 be
       0.23393145 -0.28998077 -2.0760489 -0.31686568
0000f0 bc 77 de 3e fe 45 66 3f d5 fe d0 3f 73 be 29 3f
       0.43450725 0.8995055 1.6327769 0.6630623
000100 68 92 0c 3f e7 a5 07 3f 7e 4a 13 40 1e 75 e6 3e
       0.549109 0.5298752 2.3014216 0.45011228
000110 e8 81 ab 3e d8 28 de 3e 93 b7 70 bf d4 6f c3 3d
       0.33497548 0.43390536 -0.9403011 0.09542814
000120 ea a6 9e 3e f3 61 b5 3e d7 14 2b 40 dc 9e e6 3e
       0.3098672 0.35426292 2.673147 0.45043075
000130 a4 9f 5c be 9b 91 5f bf f3 9b 6f be ac d3 1a bf
       -0.21545273 -0.8733155 -0.23399334 -0.60479236
000140 11 ca b9 be 28 e5 84 3e bc d7 1d 3f 82 9d 88 3c
       -0.36286977 0.25956082 0.6165731 0.016676668
000150 92 23 4c 3f 8d ce 97 bc e1 ff 5c bf b9 1d ec bd
       0.79741776 -0.018531108 -0.8632794 -0.11529107
000160 48 67 df 3e 74 72 8c be ec e8 d3 bf 54 82 c3 be
       0.43633485 -0.2743107 -1.6555457 -0.3818537
000170 a0 e3 81 3e af b2 dc 3c 6e 35 c5 bf 41 26 98 be
       0.25368977 0.026940672 -1.540693 -0.29716685
000180 81 4e 97 3e d7 e2 15 3a 95 4d 07 c0 80 b8 ec be
       0.2955208 0.00057177007 -2.1141102 -0.46234512
000190 25 48 59 3f 34 87 95 3e a6 4e 84 bf 03 0b c8 3d
       0.8487571 0.29204714 -1.0336502 0.09767725
0001a0 6b ba 55 bf cf 92 8c be 81 6b d8 bf e3 69 52 be
       -0.83487576 -0.27455756 -1.6907808 -0.20548205
0001b0 d8 c5 87 bd 08 de 1f 3e 73 91 84 bc b2 38 25 3e
       -0.066295326 0.15612042 -0.016182637 0.16134909
0001c0 22 3e 4c be 79 4c 65 3e 56 0a f8 3d 48 83 52 bd
       -0.19945577 0.22392453 0.121113464 -0.05139473
0001d0 2b a4 f8 bd f9 2e 99 3d d2 e2 91 3c df 8a cf 3a
       -0.121406876 0.074796624 0.017808352 0.0015834233
0001e0 a7 6b 4d 3f ba ab 03 3f 46 3f 00 3e ac 9e 88 3e
       0.8024239 0.5143391 0.12524137 0.26683557
0001f0 11 18 64 bf 9f 33 96 be ae 75 ac bf 5e 58 81 be
       -0.8909922 -0.2933626 -1.3473413 -0.2526273
000200 e1 54 09 bf 20 56 c1 be b4 c1 c7 be a1 f9 9f be
       -0.5364514 -0.3776102 -0.3901497 -0.3124514
000210 61 dd 64 bf bc 89 89 be bb 80 fe 3e 8c d6 b9 bd
       -0.894003 -0.26862895 0.4970759 -0.09074125
000220 c9 25 42 bf 01 b6 6b be f3 e3 04 40 5e 42 e5 3d
       -0.75838906 -0.23018648 2.076413 0.11194299
000230 33 06 df 3e b1 5f 37 bc 57 25 15 40 cf d6 3a 3e
       0.43559417 -0.011192248 2.330404 0.18246005
000240 58 0c f6 be 4e ca 03 be 17 7d 49 3f 9e c2 22 be
       -0.48056293 -0.12870142 0.78706497 -0.15894553
000250 db 77 04 bf 22 7c b8 be bc f2 f4 bf e2 03 d9 be
       -0.51745385 -0.36032206 -1.9136577 -0.42385775
000260 12 27 8d 3b b0 ec 29 3d 72 d8 ca be 80 f2 dd be
       0.004307636 0.04148549 -0.3961826 -0.43349075
000270 66 47 19 3f 2b ba bd be 3a 17 a3 bf 0d aa f2 be
       0.5987457 -0.37056097 -1.2741463 -0.47395363
000280 1f 74 c2 bd 86 09 77 be 28 59 8b bf 73 67 c9 be
       -0.094948046 -0.24124727 -1.0886583 -0.39336738
000290 21 7f 62 bf 53 a5 cd 3c 30 57 0d 40 3a 41 9a 3e
       -0.88475233 0.025103247 2.2084465 0.3012789
0002a0 a1 e8 30 bf c3 13 62 be 1c 11 a9 3f d0 39 ad bd
       -0.69104964 -0.22077851 1.3208346 -0.084582925
0002b0 66 a2 80 bf c1 f7 19 be c9 0d 14 40 8e 7d 76 3e
       -1.004956 -0.15035917 2.3133414 0.24071333
0002c0 13 72 5a 3e 58 cd b3 be d6 5c df bf 82 d9 90 be
       0.21332578 -0.35117602 -1.7450206 -0.28290945
0002d0 a3 b8 8c 3c fe a1 8f bd 4c ed e2 3f 5a cd 79 3d
       0.017177885 -0.070133194 1.7728667 0.060986854
0002e0 76 9a d4 3e 22 26 33 3f 56 94 4e 3f 5a a6 e0 3e
       0.41524094 0.6998006 0.8069509 0.43876916
0002f0 93 c9 11 bf 8b c7 e3 3e 4e a0 1f 40 25 cd cb 3e
       -0.569482 0.44488177 2.4941592 0.3980495
000300 c0 33 6a be 5e 9a ed be b8 dc b3 bf 1f 34 eb be
       -0.22871304 -0.46406835 -1.4051733 -0.45938203
000310 6a 7b 8e be cb 4c 3c 3e 6a 73 7d be cf f0 21 3d
       -0.27828532 0.18388669 -0.24751058 0.039536294
000320 81 b9 ee bc 5b d9 c3 3d 2a be a6 bf ef fd 1d bc
       -0.02914119 0.09562942 -1.3026783 -0.009643062
000330 8f e1 97 be 0e f6 58 3f 11 d8 17 be c1 d6 16 3f
       -0.29664275 0.8475045 -0.14828517 0.5892144
000340 22 21 8b 3e 2e c9 14 3e 4d 17 8e bc cd b8 5f 3c
       0.27173716 0.14529869 -0.017345095 0.0136549
000350 1e 34 83 3e 2b bf 1e 3e 33 76 0a c0 69 82 c8 bc
       0.256257 0.15502612 -2.1634643 -0.024476247
000360 0a 17 29 bf 7d a4 c6 be 04 4a d7 bf f9 f6 e9 be
       -0.6605078 -0.3879737 -1.6819463 -0.45696238
000370 05 89 19 3f 30 3e b1 3e 8b 0e f4 3f 9b b9 b1 3e
       0.599747 0.34617758 1.9066938 0.34711918
000380 f3 c9 3f be d9 02 ea 3d a7 39 79 bf 67 d4 16 bd
       -0.18729381 0.114263244 -0.97353595 -0.036823656
000390 b6 e6 91 bd 7f 0b 7c be 64 77 f8 3e 3f fc 1c 3f
       -0.07124083 -0.2461376 0.48528588 0.61322397
0003a0 4d 0c 5f bd a1 52 74 3d 6c ce ee 3f e7 f2 83 3e
       -0.05445509 0.059649114 1.8656745 0.25771257
0003b0 a2 24 86 3e 3e f3 8e be 56 d7 01 bf e9 6e e3 bc
       0.26199824 -0.27919954 -0.507192 -0.027762847
0003c0 56 b5 1c 3f 62 f9 f7 3e 2a fb 50 bf 42 8f a2 3e
       0.61214197 0.4843245 -0.81633246 0.31749922
0003d0 c3 2a ab 3e f5 c3 20 bf 0b 0e be bd 00 79 c7 be
       0.33431062 -0.62799007 -0.09280022 -0.38959503
0003e0 08 bf e3 3b ab 02 b4 bd 4d f6 94 bf a3 6e 19 be
       0.006950263 -0.087895714 -1.1637665 -0.14983611
0003f0 90 0e 38 3f 54 dd e3 3d fc 36 c6 bf 0e f7 ad be
       0.7189722 0.11126199 -1.548553 -0.3397755

net.fc1.bias f4 [64]
000000 df d5 88 bf cf ea ef 3e c1 4a fd be 8c 2a 94 be
       -1.0690268 0.46858832 -0.49471095 -0.2893871
000010 b5 8f 10 bf 5f 67 08 bd 26 e2 20 3f db 3a 54 3f
       -0.5646928 -0.033301707 0.62845075 0.82902306
000020 17 b4 95 3e 19 1f 6e bf 91 51 24 bf dd 3b d9 3e
       0.2923896 -0.930162 -0.6418696 0.42428485
000030 ad 78 77 3f 63 a5 c4 3e 76 b3 56 bf 65 7e a9 be
       0.9666851 0.3840743 -0.83867586 -0.33104244
000040 ba 5f 8f bf 02 3a 70 3e 9c f4 30 bf 21 9e b0 be
       -1.1201088 0.23459628 -0.69123244 -0.34495643
000050 10 0e 52 3f d9 d6 10 bf 76 d9 b1 be c4 f3 e5 3e
       0.8205271 -0.5657783 -0.34736222 0.4491254
000060 ef 49 40 bf 10 e9 41 bf 4e fc 03 bf fd 25 65 3f
       -0.75112814 -0.7574625 -0.5155686 0.8951109
000070 be 56 fd be a5 e8 4f 3f 9f dd 34 bd 30 80 61 be
       -0.49480242 0.8121436 -0.044156667 -0.22021556
000080 5e 2d d6 3d 04 a2 be be d8 df e4 be a4 06 a5 bd
       0.10457872 -0.37232983 -0.4470203 -0.08057907
000090 d8 53 32 3e e6 db a9 be a8 e6 67 be 40 a1 f3 be
       0.17414796 -0.33175582 -0.22646582 -0.4758396
0000a0 59 8c 63 3f c4 73 2e bf d5 55 c9 3e 0e 8a 2b bf
       0.8888603 -0.68145394 0.39323297 -0.6700753
0000b0 4d 54 4e bf 6d e0 0e 3f f1 aa a1 be 0f 68 5c 3f
       -0.8059738 0.55811197 -0.3157573 0.8609628
0000c0 ad 78 a9 3d 07 ee d7 be dc 96 bd 3e f6 1b 35 3e
       0.0827497 -0.42173788 0.3702916 0.17686448
0000d0 ef 3e dc 3e 95 71 b5 bd 5d 0d 8c be 7c 11 74 be
       0.43016765 -0.08859555 -0.27353945 -0.23834795
0000e0 d7 6f 0e 3f 05 eb b8 bd fb 80 50 be 5a fd 61 3f
       0.55639404 -0.090292014 -0.20361702 0.8827721
0000f0 62 f7 77 be 3a 40 3e 3e 05 21 14 3f 58 fa 18 3f
       -0.24215463 0.18579188 0.57862884 0.59756994

net.fc2.weight f4 [64, 64]
000000 70 6d 5d c0 f4 47 ee 3e 05 d8 7f bf 00 2e 0e c0
       -3.4598045 0.4653927 -0.99938995 -2.2215576
000010 33 4e 29 3e 94 9e b1 3e 8f 57 4e 3e de 93 80 3e
       0.16533737 0.34691298 0.20150588 0.25112814
000020 fc 73 9f be c3 f1 1b be 84 d8 4b bf b5 83 9a 3d
       -0.31143177 -0.15228944 -0.7962725 0.075446524
000030 bd 10 d5 3e 42 a4 92 3e 94 81 32 c0 f2 24 34 3d
       0.41614333 0.28640944 -2.7891588 0.043980546
000040 ca 1e b4 3e 51 36 d7 3e be bd 27 bf 3c 21 01 bf
       0.3517974 0.42033628 -0.655239 -0.50441337
000050 01 48 0c 3e 79 03 e1 bf f5 fb 31 be ba 45 b1 3e
       0.13699342 -1.7579185 -0.1738127 0.3462351
000060 c3 76 44 3e 4c c3 10 c0 23 44 23 c0 3c 24 d0 3e
       0.19185929 -2.26192 -2.5510337 0.40652645
000070 1f a9 b4 3e dc 57 9f 3e e5 18 5b 3e 28 ba a0 bf
       0.3528528 0.3112172 0.21396215 -1.255681
000080 80 91 0a c0 61 84 d2 c0 6b e5 fc c0 f1 56 0e 3e
       -2.1651306 -6.5786595 -7.903005 0.13900353
000090 0f ec d8 3d 0a 82 c5 bf f3 99 c4 3e d6 00 81 bd
       0.105918996 -1.543031 0.38398704 -0.062989876
0000a0 88 10 ca 3d 62 3c ca c0 50 ba 13 3e a1 fb bb c0
       0.09866434 -6.319871 0.14426541 -5.8744664
0000b0 20 2f 4e bf ab c1 9d 3e 9f 5e 36 3d 16 eb b6 3d
       -0.8054066 0.3081182 0.04452383 0.08931558
0000c0 19 81 88 bf e8 75 a5 bc 3b b6 c0 3c 6f c4 d9 3e
       -1.0664397 -0.020197824 0.023524394 0.4253268
0000d0 36 fd 6e 3e 5b 62 b0 3e 77 10 04 be 03 15 08 bd
       0.2333878 0.3445004 -0.12896906 -0.033223163
0000e0 f8 09 4d 3e 86 82 11 bd 6f 57 39 be 88 f3 b0 3e
       0.20023334 -0.035524867 -0.1809976 0.345608
0000f0 03 3d b3 3d 85 71 27 bd 2b 4d 6e 3e 9a 98 a9 3e
       0.087518714 -0.040879745 0.23271625 0.33124238
000100 56 30 6a c0 13 ee e3 3e e9 a3 1a c1 a3 c0 71 bd
       -3.6592002 0.44517574 -9.665017 -0.059021603
000110 41 cd bc bf 88 ff a7 3e 5e 97 c1 3e a0 19 2a 3e
       -1.4750139 0.32812142 0.37810796 0.16611338
000120 8a 07 12 3e 14 b6 53 bf 82 61 0b c1 f7 50 2c 3e
       0.14260688 -0.82699704 -8.711306 0.1682776
000130 1d e8 bf 3e b3 16 ba 3e d9 e4 d4 c0 df 22 09 bf
       0.37481776 0.36345443 -6.6529355 -0.53568834
000140 9e 21 74 3f db 69 6a 3d a5 1f d4 3c 52 b4 06 3f
       0.95363796 0.057229858 0.025893996 0.52618897
000150 6f 39 bb 3d ab b7 5d c0 6f b7 3d bf ba dc 08 3e
       0.09141814 -3.4643352 -0.7410802 0.1336545
000160 d5 3a d5 c0 b6 00 5d bf 0f f5 3e bf 51 b2 aa 3e
       -6.6634316 -0.8632921 -0.7459268 0.3333917
000170 c0 3a 8d 3e 24 6e a0 3e af 28 31 be 49 04 06 3e
       0.27583885 0.3133403 -0.17300676 0.13087572
000180 83 20 08 be 51 b3 ed bd 59 eb 7b be ec 17 fa 3d
       -0.13293652 -0.116064675 -0.24601497 0.12211594
000190 cf f4 cd 3e f9 7b 0b bf 46 e2 a4 3e c3 f8 44 3d
       0.40225837 -0.5448604 0.32203883 0.0480888
0001a0 f5 e9 b1 3e fe d8 a1 bf 0a de b6 3e e3 3f 38 3e
       0.34748808 -1.2644346 0.35716277 0.17993121
0001b0 9e 45 2a c1 e6 6f b5 3e 58 50 36 c0 ef fe e9 3e
       -10.641996 0.35436934 -2.8486538 0.4570231
0001c0 79 1b 10 3e 4e 14 2c bd 02 98 b5 bc be 64 9f 3e
       0.1407298 -0.04201155 -0.02216721 0.31131548
0001d0 aa 4a 8c 3e b5 78 e0 3c ab a9 4f bf ea 7f 89 be
       0.27400714 0.027401308 -0.8111827 -0.26855403
0001e0 d8 bf a8 bc 60 10 34 be 90 ab 87 3e f5 ed a5 3e
       -0.02059929 -0.17584372 0.2649808 0.3240811
0001f0 96 84 f0 bf 98 db aa 3d d0 ab 82 3d 96 03 09 3e
       -1.8790462 0.083426654 0.06380427 0.13380274
000200 dd ba c7 bc ca af 14 be e8 21 82 3d 6e d7 89 3d
       -0.024381096 -0.14520183 0.06354123 0.06730543
000210 07 c4 a2 3d 74 e6 8b 3c 59 fd f6 bd 41 86 8d 3d
       0.079475455 0.017077662 -0.12060041 0.069103725
000220 1a 76 59 bc 59 0f 96 3c 81 d2 fd bd 06 d1 80 bd
       -0.0132727865 0.018317865 -0.12393666 -0.06289868
000230 00 62 1b be 7b 94 bb bd 20 ca 99 bb 86 52 fd bd
       -0.15174103 -0.0915918 -0.0046932846 -0.12369256
000240 fd cf 66 3c 07 16 cf 3c cc bf 09 bd 0c 49 ab bd
       0.014087674 0.025279058 -0.033630177 -0.08363542
000250 d4 62 1c be cd d4 bc bd 9a 25 3e 3d 00 59 b8 3d
       -0.15272075 -0.09220276 0.04642258 0.090013504
000260 93 2c b0 3d e5 d8 61 bd a6 1d 28 3c 75 a1 28 be
       0.08602252 -0.055138487 0.010260975 -0.16467841
000270 aa 34 03 be 1d 05 9c 3c 19 f6 bb bd 92 b2 30 3d
       -0.12813058 0.019045407 -0.09177799 0.043139048
000280 f8 b7 b4 bd 64 99 7d bd 48 dd d2 bd 57 1e 93 3c
       -0.08824152 -0.061913863 -0.10296112 0.017958803
000290 60 ae 50 bc 62 ea a1 3d fe d1 41 3d 65 ab 7e 3d
       -0.012736887 0.07906033 0.047319405 0.062175173
0002a0 18 c3 93 bc 94 4c 1e bd ca 69 3b bd 18 17 88 3c
       -0.018037364 -0.03864725 -0.045755185 0.016612574
0002b0 33 54 7e 3d 1d fd f0 bd 6e 6e 42 3d 10 da eb bd
       0.062092017 -0.117670275 0.047468595 -0.115162015
0002c0 67 10 fb bd c4 82 8a bd 62 6a ae 3d 66 2a 21 3d
       -0.12258988 -0.06763223 0.08516385 0.039347075
0002d0 5d ad 21 be f1 2f 8a 3d 1a 49 ff 3c e0 a3 cd 3c
       -0.15788789 0.06747425 0.031162787 0.025102556
0002e0 f6 f5 76 3d a6 f8 89 bd bd 18 8f bc d8 29 a8 3c
       0.06029316 -0.06736879 -0.01746785 0.020527765
0002f0 c7 fd ba bd bb de b1 3c 97 48 80 bd c4 ec 2a 3d
       -0.091304354 0.021712651 -0.062638454 0.041729704
000300 5a 93 6e c0 8c 5f f2 bd df 4b c6 3e b1 9b 89 be
       -3.7277436 -0.1183463 0.3872976 -0.26876596
000310 97 d0 de 3e 35 a9 fe 3e dc 55 3d 3c f4 16 49 be
       0.43518516 0.4973847 0.011556115 -0.19637662
000320 a7 50 d1 3d 9c 22 1d 3f d3 13 0e 3e d6 51 82 be
       0.10220461 0.61380935 0.1387475 -0.2545306
000330 27 b9 8f be 10 31 ea bd e7 ee 12 c0 76 45 c0 bd
       -0.28070948 -0.11435139 -2.2958314 -0.093882486
000340 1c 2f c3 bb ce 16 ea 3d 24 ba 18 3e e5 74 4e 3e
       -0.0059565436 0.11430131 0.14914757 0.20161779
000350 4c 81 82 bd af 3f d8 bf 72 c0 3d bd 5c 3e 4b 3e
       -0.06372318 -1.6894435 -0.04632611 0.19848007
000360 92 ec 12 3e 69 b4 96 c0 c4 35 5f c0 db b7 c2 bc
       0.14348057 -4.7095227 -3.4876566 -0.02376931
000370 e4 04 7e 3d 83 96 90 bd 08 0b 07 3f a9 16 4a be
       0.062016383 -0.07059958 0.5275121 -0.19735207
000380 87 40 95 bc 39 09 1b 3e 15 c6 12 be 7c 29 40 3e
       -0.018219246 0.15140237 -0.14333375 0.18765825
000390 74 6f 2f be 72 b0 f4 bf 74 9a 9c 3c fa 71 f0 be
       -0.1713236 -1.9116347 0.019116618 -0.46961957
0003a0 69 f2 22 3e 98 84 ea bd 21 0e a9 3e 25 cf 2c be
       0.15912785 -0.114510715 0.33018592 -0.16875894
0003b0 84 d8 74 bf 7e 7b 48 c0 4e a8 07 3f 91 be ba c0
       -0.95642877 -3.1325374 0.5299119 -5.8357625
0003c0 46 f9 01 be d8 21 97 bd b2 a4 9c 3d 05 d2 c5 3e
       -0.12692747 -0.07379502 0.07648601 0.38636795
0003d0 79 3f d1 3c b7 3f 1d 3f 73 0d 97 be 93 6a 8b be
       0.025542961 0.61425346 -0.29502448 -0.27229747
0003e0 82 92 02 3e f6 2f 33 be 78 97 3c 3e 58 23 2f 3c
       0.12751201 -0.17498764 0.18417156 0.010689579
0003f0 8a ed 36 3f 2e 2d 3d be 48 e0 a1 3d ca 63 db 3e
       0.71456206 -0.18474266 0.079041064 0.4284957

net.fc2.bias f4 [64]
000000 c6 36 d3 3e 55 a4 fa 3e 66 d6 9c bd 33 81 02 be
       0.41252726 0.489535 -0.07658081 -0.12744598
000010 30 3f 1d 3f d1 f2 2c 3f 4f 13 1a 3f ca 99 0b be
       0.6142454 0.6755801 0.6018571 -0.13632885
000020 f7 fe 62 3f 03 93 ba be 1d 8d 0a 3f 0b e6 36 be
       0.88670295 -0.36440286 0.5412157 -0.17861192
000030 88 7d bf bd e1 ab a3 be fc e4 46 3f 52 f3 8b 3d
       -0.09350115 -0.3196707 0.7769315 0.06833519
000040 0c 46 88 be e1 f3 9f bd ee ec 5b 3f 5d b5 5c bc
       -0.26615942 -0.07810188 0.859084 -0.013470975
000050 13 23 bc bd b0 1e 4a bd 06 87 51 3f 11 1d ff 3e
       -0.091863774 -0.049345672 0.81846654 0.49826863
000060 b4 02 09 3f 12 f1 4e bf cd 44 49 3f bb 4f 64 bd
       0.5351975 -0.80836594 0.78620607 -0.0557401
000070 2d 25 0d 3f c3 82 87 bd d5 a6 30 3f 5c 5c 2d 3f
       0.5513485 -0.06616738 0.69004565 0.67719054
000080 00 58 c9 bd db ce c8 bd e7 b1 4a 3f 4f cc 54 3e
       -0.09831238 -0.098050795 0.7917771 0.20781063
000090 80 97 54 3f 2c 46 ba bd ba 66 e2 3c b0 ba c6 3d
       0.8304367 -0.090954155 0.027636874 0.097035766
0000a0 77 e4 7b bd 81 c9 cf 3c cc dc ea 3e a4 c2 59 3f
       -0.061497178 0.02536464 0.4587158 0.85062623
0000b0 1c 0f 93 bd a5 00 ff 3e 77 c5 48 3f d5 2e 5d bd
       -0.07180616 0.4980518 0.7842631 -0.05399974
0000c0 19 56 9a bd da 9e f7 3d ae ad 07 3d da ab c8 bd
       -0.07535953 0.120908454 0.03312462 -0.09798403
0000d0 09 1f 36 3d 1d a9 64 3f bb 1c ae bc 84 d9 11 be
       0.04446319 0.89320546 -0.021253934 -0.14243132
0000e0 38 24 2c 3f 15 f0 95 bd 98 82 84 3d 66 74 28 bf
       0.67242765 -0.07321183 0.06470221 -0.6580261
0000f0 fa 0e 0f 3f cc 00 08 bd 08 d1 2a bd 97 68 5a 3f
       0.5588223 -0.033203885 -0.041703254 0.8531584

net.out.weight f4 [2, 64]
000000 fc f8 a0 3f cb 3c 32 bf b9 80 db bc 8f dc cb 3f
       1.2575984 -0.6962401 -0.026794778 1.5926684
000010 50 67 85 3f 23 17 8f 3f 49 4c ee 3e 29 44 89 3c
       1.0422153 1.1178936 0.46542576 0.016756134
000020 2d b5 6e 3f 51 f1 1f c0 53 a5 ab 3f 9e ac 31 c0
       0.932452 -2.4991038 1.3409828 -2.7761607
000030 de 21 b2 3d 8b 2b 10 40 97 71 10 3f 74 62 6f 3d
       0.08697866 2.2526577 0.56423324 0.0584435
000040 66 f5 4e bf 35 31 90 3d a3 10 19 3f 90 50 2a bc
       -0.808432 0.070406355 0.5979101 -0.010395184
000050 67 e1 df 3c d9 e2 75 3c 09 fb a5 3f 50 77 36 3f
       0.02732916 0.015007698 1.2967235 0.71275806
000060 02 ba 34 3f 70 e8 22 40 21 e8 3f 3f 65 9b bf bc
       0.70596325 2.5454369 0.74963576 -0.023389528
000070 a2 cf 87 3f aa fa 2e 3f 0f 49 8a 3f 71 36 8d 3f
       1.061024 0.68351233 1.0803546 1.1032239
000080 8e 29 f6 3c db 36 91 bd e1 d8 9d 3f 22 5e 3f 3f
       0.030049112 -0.07090541 1.2331811 0.7475301
000090 de db 47 3f 06 97 9d 3d bc bb b3 3d 96 2d 0d 3d
       0.78069866 0.07694821 0.08776042 0.034467302
0000a0 1e 77 b6 3c ac e3 8b ba 3a b1 a8 3f 06 d8 2f 3f
       0.022273596 -0.001067271 1.3179085 0.68689
0000b0 c2 93 bb 3f 48 41 70 3f 8f 7d 09 be a5 1e 42 3d
       1.4654467 0.9384961 -0.13426803 0.047392506
0000c0 83 17 c3 bd 10 bb 94 3d 21 a0 8e bd 34 cb e8 bd
       -0.09525969 0.07262242 -0.06964136 -0.11366883
0000d0 d1 55 cf bd 29 fe 9d 3f 41 de fd 3c af 5e 8b 3d
       -0.1012379 1.2343189 0.030989768 0.06805169
0000e0 a8 28 02 bd 65 2e d0 bc d3 e4 91 bc 8c b3 ce bf
       -0.031777054 -0.025412748 -0.017809307 -1.6148543
0000f0 60 bd 1d bf 8c 5c 39 bd 64 e1 a1 3c e4 74 a6 3f
       -0.6161709 -0.045254275 0.019760795 1.3004422
000100 98 90 25 bf 51 de 90 3f 1c 35 f3 bc 8f 4e 7a c0
       -0.6467376 1.1317846 -0.02968841 -3.9110448
000110 2c a2 97 3f 17 bb 9a 3f 29 2f a0 3f 54 91 ab 3c
       1.1846366 1.2088345 1.2514392 0.020943321
000120 46 0b c5 3e e8 c9 dc bf 4c e6 aa 3d cf 27 ce bf
       0.38485163 -1.7249117 0.08344707 -1.6105899
000130 0c b8 c8 bd 82 18 8e 3f f7 4b 3b 3f d2 ca 13 bd
       -0.09800729 1.1101229 0.7316279 -0.036082096
000140 f7 67 30 c0 8e b5 88 3d 01 3a 56 3f 60 60 20 bd
       -2.7563455 0.06675254 0.83682257 -0.03915441
000150 33 73 78 bd e8 cf d5 bc e2 31 58 3f 3b b9 49 3e
       -0.060656738 -0.026100114 0.84451115 0.19699566
000160 6c d0 c0 3d fe e9 c2 3f 88 e2 02 3f ad 7c f5 bc
       0.09414753 1.5227659 0.5112691 -0.029966677
000170 9a 78 7b 3f 85 f8 86 c0 33 22 8c 3f cd a7 bf 3e
       0.982309 -4.217837 1.0947937 0.3743271
000180 3e b2 77 bc 60 24 e4 bd 10 de 82 3f ab 4d 69 bf
       -0.01511818 -0.111397505 1.0224018 -0.91134137
000190 fd 97 f5 3e b8 b0 07 bd b6 76 d2 bd 6f 39 a8 bd
       0.4796752 -0.033127517 -0.102765486 -0.082140796
0001a0 77 6d 80 ba 2f 15 80 bc ed d7 33 3f 7b 63 1a 3f
       -0.0009798248 -0.015635101 0.7025135 0.60308045
0001b0 22 1b de bf b0 1b e3 3e 61 0c a9 3f da 2f cf 3c
       -1.735203 0.4435706 1.3206903 0.025291372
0001c0 67 70 73 bc e0 01 83 3b af 19 5c 3d 3d 7b 86 3d
       -0.014858342 0.0039980263 0.05373543 0.065664746
0001d0 a3 c1 75 bc 57 b5 47 3f 9c 08 82 bc 33 cf 7d bd
       -0.01499978 0.7801108 -0.015873246 -0.06196518
0001e0 f4 de a1 3f 8d 2a 33 bd f0 93 1f bd 13 1b cd bf
       1.2646165 -0.04374175 -0.038959444 -1.6023887
0001f0 1e b3 b8 3f 6a 9e e3 3d 3b 0f 32 bd b2 4e 9b 3f
       1.4429662 0.111141995 -0.043471556 1.2133391

net.out.bias f4 [2]
000000 b0 59 66 3f 47 91 2c 3f
       0.899806 0.67409176

exp_avg f4 [64, 4]
000000 6a 7a 17 ba 3a 46 cf bb c8 3f 8d 3a 0c cb 06 3c
       -0.0005778434 -0.0063255103 0.0010776455 0.008227121
000010 9d 98 a6 bd bb 81 2b bc 67 52 5d 3c f5 d2 5c bc
       -0.081345774 -0.010467942 0.013508416 -0.01347803
000020 f6 c3 6c 3c 6f 6a a8 3d ce 6f 29 bd 00 ef bc bd
       0.014451018 0.082234256 -0.04136639 -0.09225273
000030 91 10 58 bd fb b3 c9 bd 51 da 27 bc f3 42 6c 3d
       -0.052750174 -0.09848782 -0.010244922 0.057681035
000040 39 e6 02 3f d6 a7 54 3e 49 0f b8 3b 47 38 35 bd
       0.5113254 0.2076715 0.0056170565 -0.044243123
000050 ce 20 ba 3c cb 77 28 be d3 e4 d3 3c a5 01 34 3e
       0.02272072 -0.16451947 0.025865948 0.17578752
000060 38 7e 46 3d 62 c5 0d be 9c a5 64 3d bb 09 60 3e
       0.048460215 -0.13844827 0.055822 0.21878712
000070 91 30 53 be f8 f9 91 be 28 a6 93 3d 14 5f 9b 3e
       -0.20623995 -0.28511024 0.07209426 0.30345976
000080 0b 92 9f bd 98 34 24 be 43 e1 80 3c a3 57 3a 3e
       -0.07791527 -0.16035688 0.015732413 0.18197493
000090 0e 23 66 3f 3f 4c c2 3e 47 cc d7 bc 78 b0 91 3d
       0.8989724 0.37948796 -0.026342524 0.07113737
0000a0 42 12 f9 3c 98 16 fe bd 58 92 16 bd 49 dc 51 3e
       0.030404214 -0.12406653 -0.036760658 0.20494188
0000b0 ae c8 a7 be 7e 0a 47 be 8f 5d 11 3d 1b 9a 16 3e
       -0.32770294 -0.19437596 0.035489615 0.14707224
0000c0 b7 02 b5 bc 92 9c 83 be 8c fc a2 3d 44 64 a4 3e
       -0.022096021 -0.2570539 0.07958326 0.32107747
0000d0 1f d4 0a bc 07 28 36 bd 24 be ce 3c f6 93 44 3d
       -0.008473425 -0.044471767 0.02523715 0.04799267
0000e0 04 00 00 00 04 00 00 80 04 00 00 80 04 00 00 80
       6e-45 -6e-45 -6e-45 -6e-45
0000f0 c0 ad f9 be bd a0 9b 3d b3 d8 c6 3b 1b 6f 5c bd
       -0.48765373 0.07599018 0.006068313 -0.053816896
000100 19 0d 4b 40 7e 67 76 3f 9a bc bf bc 24 fc 66 3e
       3.1726744 0.96251667 -0.023405362 0.22557122
000110 1c d7 f9 3d 23 1a c6 3d d1 dc 42 3c 82 64 9a bd
       0.12199232 0.09672954 0.011893467 -0.075387016
000120 e6 92 db 3f 7b 66 b7 3e 17 f5 9c 3b 29 5f a0 3e
       1.7154205 0.35820374 0.004789959 0.313226
000130 b0 c7 16 bc a1 f8 ee bc 69 6c c0 ba 15 d1 7c 3c
       -0.009202883 -0.02917129 -0.0014680746 0.015430708
000140 1c e8 01 3e 5b 95 dd bd 07 41 83 3d ab 20 56 3e
       0.12686199 -0.10819503 0.06408887 0.209109
000150 54 80 8b 3e 64 59 ac be 26 e8 0e bd fc 5c c9 3e
       0.27246344 -0.3366195 -0.034889363 0.39328754
000160 b0 fd 10 3f 7a 23 f6 3e 13 6a 82 3d ba ef 70 be
       0.56637096 0.4807394 0.06367888 -0.23528948
000170 f5 8d 07 3e a7 54 89 3c 99 31 de 3c 04 72 23 3d
       0.13237746 0.016763998 0.02712326 0.039903656
000180 49 c0 cc 3c 31 65 92 3c a7 3a 86 ba 23 14 e0 b9
       0.024994032 0.017870517 -0.0010240868 -0.00042739612
000190 06 ef 2f bf d8 c9 28 bf ff f1 1e bd 9b 2d d7 3e
       -0.68724096 -0.6593299 -0.038805004 0.42026982
0001a0 06 c8 33 3d 55 6d 64 3c a7 af f0 ba 6c e2 a6 3b
       0.04389193 0.013942082 -0.0018362895 0.0050929096
0001b0 56 4a 88 3d 7d a5 6e be b6 72 9f 3d 72 d1 a3 3e
       0.066548035 -0.23305316 0.07785551 0.31995732
0001c0 04 00 00 00 04 00 00 00 04 00 00 00 04 00 00 80
       6e-45 6e-45 6e-45 -6e-45
0001d0 60 c4 52 3d 38 b3 49 be cd c2 91 3d 78 ea 8c 3e
       0.05145681 -0.19697273 0.071172334 0.27522635
0001e0 fb b2 8e 3c e7 88 19 3c 4c 42 c1 3c bd 53 06 bd
       0.017419329 0.009371019 0.023591183 -0.032794703
0001f0 81 6d 74 bc 0a b3 b2 bc c4 da 52 bc 89 29 8b bb
       -0.014918686 -0.021813888 -0.012869541 -0.0042468947
000200 59 0e 5e 3b 55 2c 22 3c a5 46 67 ba 99 71 75 bb
       0.0033883064 0.009898265 -0.00088224775 -0.0037451743
000210 64 0f 15 bc 9f 64 14 3c a9 68 fd b9 85 0a af bc
       -0.009097908 0.009057193 -0.00048333898 -0.02136732
000220 28 2f ad 3c 44 56 06 bd a3 e6 80 3a 16 f5 9d 3d
       0.02114065 -0.032797113 0.000983436 0.07712762
000230 20 26 1a bd 24 f6 dd 3c b2 96 9a 3a c2 bb 5a bd
       -0.037634015 0.027094908 0.0011794178 -0.053401716
000240 b3 52 32 bd d9 16 e2 bd 44 37 02 3c 21 da f4 3d
       -0.0435359 -0.11039514 0.007947747 0.11955667
000250 28 48 dc bc 3c 50 e3 3d 89 8f 60 bd 3c 88 50 be
       -0.026889876 0.11099288 -0.054824386 -0.2036447
000260 99 aa 4b 3c 2a ff c0 bb fd 70 57 3b 5a cd 77 3c
       0.01243081 -0.005889793 0.0032873743 0.015124643
000270 48 56 b1 be ee 18 08 be da a1 e7 ba be af 87 3c
       -0.3463614 -0.1329076 -0.0017672137 0.016563293
000280 ac ba b7 bd 50 46 76 be 56 da 94 3d 44 96 9a 3e
       -0.08971152 -0.2405026 0.07268207 0.3019277
000290 9e 73 50 3b 09 9b 51 3b 8a 43 ae 39 29 2c b8 39
       0.0031807194 0.0031983277 0.00033238187 0.00035128117
0002a0 90 2d 4e be 46 c4 ed be 40 5e 18 3d 0e 85 f9 3e
       -0.20134568 -0.46438807 0.03719926 0.48734325
0002b0 00 23 84 39 dc 42 97 39 cb 00 23 b8 ab af 86 b8
       0.0002520308 0.00028850778 -3.8862967e-05 -6.4223386e-05
0002c0 04 00 00 00 04 00 00 80 04 00 00 80 04 00 00 00
       6e-45 -6e-45 -6e-45 6e-45
0002d0 7a d2 6f bd a0 b5 0c be 9d 40 2f 3d 92 fe 18 3e
       -0.058550335 -0.1374116 0.04278623 0.14940861
0002e0 27 11 1f 3f 86 4f 0a 3f 65 45 0a 3d 19 23 87 be
       0.6213555 0.54027593 0.033757586 -0.26393965
0002f0 cb e9 7d 3e 29 3d 8b bd 8a df 46 3d 3c cb f4 3d
       0.24796216 -0.06798775 0.048553027 0.119528264
000300 e0 2f 4b 3d 7a 9c 0f 3e e9 c8 c9 bc bc 6d 28 be
       0.049606204 0.14024535 -0.024631934 -0.1644811
000310 04 00 00 80 04 00 00 80 04 00 00 80 04 00 00 80
       -6e-45 -6e-45 -6e-45 -6e-45
000320 fd 89 ef 3d 57 34 02 3d 15 39 8a 3c af a6 15 3d
       0.11696241 0.031788196 0.016872922 0.036535915
000330 18 b2 91 3e a2 bd cf bd 0a a1 2e 3d 64 40 11 3e
       0.28456187 -0.101435915 0.042634048 0.1418472
000340 46 cf 41 3d b9 38 8b 3d a9 f9 67 3c 75 15 84 bd
       0.047316812 0.06797928 0.014158645 -0.06449405
000350 10 bb 0d be 77 0e 84 3c 4f 2c 05 bd eb ea 92 bd
       -0.1384089 0.016120179 -0.03251296 -0.07173713
000360 26 5f 3c bc 59 d6 54 3e a6 8b b3 bd 69 d3 99 be
       -0.0114972945 0.20784892 -0.0876687 -0.30044106
000370 af 81 da be cd d0 81 be 6c 59 8d 3c 9b 75 53 3e
       -0.42677066 -0.25354615 0.017254554 0.20650332
000380 31 e1 fa 3c e4 bd f2 bd a2 6c 59 3d ab 1a 47 3e
       0.030624958 -0.11852625 0.053082116 0.19443767
000390 c1 84 ce 3c 11 24 0e bb 69 e8 9c 3a 74 4f 3e 3c
       0.025209786 -0.0021688978 0.0011971119 0.011615623
0003a0 fb c4 81 3c 83 2e ea 3b 17 b8 12 3a 77 1b 18 3b
       0.015840998 0.007146658 0.00055968895 0.002320973
0003b0 b5 e9 22 bb 70 b9 7c be 38 e0 97 3d d0 9a 9d 3e
       -0.0024858539 -0.24680114 0.07415813 0.30782175
0003c0 3a 86 ba 3e 56 6e 7d 3e 10 34 e4 bc 06 d2 d4 bd
       0.36430532 0.24749121 -0.027856857 -0.10391621
0003d0 af 2d 20 be ca 71 5a bd b0 c1 50 3c 2e 1c 9b 3c
       -0.15642427 -0.053331174 0.012741491 0.018934336
0003e0 15 ee 58 3a b1 f2 3f be d6 da 68 3d 1f 29 77 3e
       0.0008275223 -0.18744923 0.056849323 0.2413678
0003f0 3c cd 8a 3d 90 78 c0 ba aa 0b f3 3c 36 9c 0d 3d
       0.067774266 -0.0014684368 0.029668648 0.034572802

exp_avg_sq f4 [64, 4]
000000 ae 14 29 40 e2 0b 6a 40 30 05 be 3d 87 7a 0f 40
       2.6418872 3.6569753 0.09278333 2.2418535
000010 ee 59 65 40 85 45 68 40 3b 0a 44 3d 71 32 63 40
       3.5836139 3.6292431 0.04786132 3.5499537
000020 57 93 b1 40 03 5d fd 40 2b f1 09 40 dc 69 f2 40
       5.549236 7.917604 2.1553447 7.5754223
000030 92 0b f5 3e 6f f5 02 41 18 bb 19 3e 9a d5 c4 40
       0.4786039 8.18492 0.15012777 6.1510744
000040 65 f8 15 3f 70 ee 31 3e fa c4 65 3a c2 d4 1d 3e
       0.58582145 0.17376113 0.00087650085 0.15413192
000050 22 ef fe 40 ad bc 7b 40 92 cb a3 3d 71 c9 67 40
       7.966691 3.9333909 0.07997812 3.62167
000060 d3 02 67 41 08 af 4e 41 c8 fa 8d 3e 01 7d 49 41
       14.4381895 12.917732 0.27730393 12.593019
000070 50 24 b7 41 6a 34 a7 41 79 8c e5 3e 2e 36 a8 41
       22.89273 20.900593 0.44833735 21.026455
000080 c8 f2 f7 3e d8 83 1a 40 f3 44 6a 3d 6b 55 38 40
       0.48427415 2.414297 0.05719466 2.8802135
000090 74 cd 9d 41 47 19 52 40 34 06 67 3c cc 4c 02 3f
       19.725319 3.2827928 0.0141006 0.5089843
0000a0 57 e9 8a 3f fe 2e 50 40 26 78 4f 3e b8 dd 8b 40
       1.085246 3.2528682 0.20260677 4.3708153
0000b0 14 c7 de 40 31 d8 83 40 28 a3 b0 3d 71 49 80 40
       6.9618015 4.1201406 0.086248696 4.008965
0000c0 e2 db d8 41 94 81 e4 41 13 19 22 3f 68 4d e6 41
       27.107365 28.56327 0.6331951 28.787796
0000d0 1a 52 67 40 0e ab 3d 40 5e 70 cf 3d 0f 35 2d 40
       3.614386 2.9635653 0.10128854 2.7063634
0000e0 06 90 2f 3a 1c 0e a6 36 97 4d bc 36 42 85 07 38
       0.00066971814 4.948828e-06 5.6118693e-06 3.2310614e-05
0000f0 6c cf 91 41 4c 83 c6 40 c3 bb 80 3d d1 c1 7c 40
       18.22628 6.2035275 0.06285813 3.9493296
000100 dc a9 f8 42 53 7d 93 41 c1 68 5a 3d e4 7d 12 40
       124.33176 18.436193 0.053322557 2.2889338
000110 77 cc f5 3f ea f0 32 3f 9d 97 02 3c 76 e4 c4 3e
       1.9203023 0.69898856 0.007970718 0.38455552
000120 7d 07 90 42 99 c4 2c 41 f8 fa 80 3d 92 98 c2 3f
       72.014626 10.797997 0.062978685 1.5202811
000130 bc 9d 49 3d 28 fc 50 40 7c f3 17 3c c5 bd f6 3f
       0.049222693 3.2653904 0.00927436 1.9276663
000140 73 3f 6c 41 fb 18 44 41 1f 69 8f 3e 0e 1b 3d 41
       14.765491 12.256099 0.2800989 11.819105
000150 92 83 11 42 d5 67 fa 40 6e 14 02 3d 5f 4a e9 3f
       36.378487 7.825175 0.031757765 1.8225821
000160 28 ed 19 41 ca 2e f4 3f 05 91 c4 3c 3f 11 69 3f
       9.620399 1.9076779 0.023994932 0.9104194
000170 62 e1 72 40 03 b9 4b 40 fb 88 55 3d 8e f2 49 40
       3.7950063 3.1831672 0.052132588 3.1554294
000180 a4 c4 9b 3f 74 2c 91 3f 0c 2d 4a 3c d1 99 a2 3f
       1.2169385 1.1341691 0.012339842 1.2703191
000190 e5 6a 91 41 b3 2d a1 40 ec ec 33 3c 36 eb 61 3f
       18.177195 5.0368285 0.01098178 0.8824953
0001a0 35 89 43 3f b4 f1 c9 3e 64 23 2a 3c a0 64 a5 3d
       0.76381236 0.39442217 0.010384414 0.08075833
0001b0 13 30 c9 41 12 2f e8 41 44 7f 21 3f 3f 81 ec 41
       25.148474 29.022984 0.63084817 29.563108
0001c0 f3 99 fd 00 17 2f 86 02 ab 8c 0b 00 f4 75 7e 02
       2.3289607e-38 1.9716559e-37 1.060653e-39 1.8694824e-37
0001d0 b8 94 aa 41 2f 9c b7 41 1f 59 fa 3e 34 15 b9 41
       21.322617 22.951262 0.4889612 23.135353
0001e0 d8 55 01 41 1f 63 3b 40 8a bc 3f 3d 45 b6 ff 3f
       8.083458 2.9279249 0.046810664 1.9977499
0001f0 72 51 e5 3d 79 2b 30 3f 76 88 ad 3d 45 44 48 3f
       0.11197175 0.68816334 0.084732935 0.7822917
000200 ee 7b 3f 3c a7 62 8a 3d aa 95 f0 3a 31 3c 97 3d
       0.011687262 0.06757098 0.001835515 0.073845275
000210 c8 55 bd 3d d5 b9 54 3d 42 d4 a3 3a be af 13 3d
       0.09244877 0.051935036 0.0012499171 0.036056273
000220 73 f4 03 3e 21 a0 c3 3e 17 f8 f4 3b 54 90 89 3e
       0.12886219 0.38208106 0.0074758637 0.26867926
000230 bd 00 70 3e c9 8c 0a 3f b8 31 52 3c 48 e1 18 3f
       0.23437782 0.5412107 0.012829237 0.5971875
000240 23 f5 63 3e a2 f1 8d 3f b4 9d e8 3c 6b a5 a8 3f
       0.22261481 1.1089365 0.028395511 1.3175482
000250 e0 36 93 3e 8a 3f a8 3f 85 2a e9 3e 77 f8 47 40
       0.28752804 1.314439 0.45540252 3.12454
000260 07 66 53 3d de a1 8b 3d 29 91 a7 3b e0 76 03 3d
       0.051610973 0.06817983 0.00511374 0.03209579
000270 ad ed 31 40 ef 9b 27 3f f8 a5 03 3c b1 41 83 3e
       2.7801316 0.6547231 0.0080351755 0.25636056
000280 6c 65 c6 41 b8 89 d6 41 b9 2c 12 3f f0 43 dc 41
       24.799522 26.817245 0.5709949 27.533173
000290 f4 2d 92 3d bd d2 b2 3d 26 c4 0e 3a a3 d3 32 3b
       0.07137671 0.087316014 0.00054460985 0.002728679
0002a0 2d 59 56 40 70 84 40 41 f8 fc a3 3e e1 d8 68 41
       3.3491929 12.032333 0.32028937 14.552949
0002b0 23 48 00 3e bd c5 13 3e 64 69 a8 3a e1 70 5a 3d
       0.12527518 0.144309 0.0012848792 0.053330306
0002c0 c2 2b 00 3c 13 d7 44 3b 43 9f 91 38 9d 92 a5 3a
       0.007822933 0.003003542 6.9438036e-05 0.0012632195
0002d0 7a cf 06 41 bc 08 fc 40 1f 02 93 3e 6b 08 f4 40
       8.425653 7.876066 0.28712556 7.6260276
0002e0 14 fb db 3f 0a df fd 3e 04 5e e6 3b dd 0f 14 3e
       1.7185998 0.49584228 0.0070302505 0.14459176
0002f0 85 ea 03 41 b7 85 14 41 c9 8f 47 3e 0f 49 12 41
       8.244756 9.282645 0.19488443 9.142837
000300 7e ee aa 3e 9d d7 4d 3f 76 bf 25 3d 93 f2 81 3f
       0.3338508 0.80407125 0.040465795 1.0152153
000310 f4 01 00 00 f4 01 00 00 f4 01 00 00 f4 01 00 00
       7e-43 7e-43 7e-43 7e-43
000320 ce 56 00 40 b4 58 e6 3f 64 5f af 3c dc 97 0c 40
       2.0052981 1.799582 0.02140779 2.1967688
000330 87 48 8f 40 31 f1 a3 40 0b 2e 17 3e 71 6a be 40
       4.4776034 5.1231923 0.14763658 5.9504933
000340 bf 71 63 40 09 f2 2f 40 bf 95 07 3d 27 a2 18 40
       3.5538175 2.7491477 0.033101793 2.384897
000350 dc e8 10 3f ed b0 1c 3f 2a 57 a6 3d d3 89 3b 3f
       0.56605315 0.6120747 0.08122094 0.7325718
000360 f9 98 0b 3f c0 0f e8 3f 54 3e 07 3f 7e 1e 78 40
       0.5453029 1.8129807 0.5282948 3.876861
000370 df 87 67 41 da 1e 2f 41 cd 0b a0 3e 95 a4 36 41
       14.470672 10.945032 0.31259003 11.415181
000380 76 51 2b 41 be 52 16 41 23 7e 56 3e f7 3e 15 41
       10.707388 9.395201 0.20946555 9.327872
000390 52 07 02 3d e5 95 f6 3d 0a 6d 61 3b bf 62 1a 3e
       0.031745262 0.12040309 0.0034397268 0.15076731
0003a0 97 d6 a0 3d 16 11 bc 3e 1d 88 9e 3c a8 a6 18 3f
       0.0785343 0.36731786 0.019352013 0.596293
0003b0 de 15 c5 41 06 ed dc 41 32 f1 14 3f e6 47 e0 41
       24.635677 27.615734 0.58180535 28.035107
0003c0 9b e3 a9 40 1d e8 1e 40 94 1c cc 3d 62 3a 01 40
       5.309034 2.482917 0.09966388 2.0191884
0003d0 e2 e8 6a 3f 4e d0 05 3f a3 f7 3c 3c e2 1f 06 3f
       0.917616 0.5227097 0.011533651 0.523924
0003e0 ad 60 54 41 8a f1 63 41 62 3c 9e 3e 35 59 68 41
       13.2736025 14.2464695 0.30905443 14.521779
0003f0 2c 5d c1 40 f1 8e c3 40 74 cf e5 3d 89 85 c0 40
       6.0426235 6.111199 0.11221209 6.0163007

exp_avg f4 [64]
000000 25 b1 d0 bb 88 4d dd be 50 62 64 3e 2b c5 91 3e
       -0.0063687735 -0.43223214 0.22303128 0.2847074
000010 69 18 d3 3e 76 85 16 bf e4 e7 6a bf 54 0a af bf
       0.4122956 -0.58797395 -0.91760087 -1.3675027
000020 66 e9 13 bf a1 9d 0a 3f ec a2 2d bc 03 1c 3d bf
       -0.5777801 0.5414677 -0.010597926 -0.7387087
000030 c6 46 ba bf 51 b6 d3 be 04 00 00 00 49 6d 58 be
       -1.4552848 -0.41350034 6e-45 -0.21135439
000040 c7 b6 e6 3f 82 ac 2a 3d 72 04 7a 3f fa 65 38 3d
       1.8024529 0.041668423 0.97663033 0.045019127
000050 e9 96 46 bf e7 bc f4 be eb 11 40 3f f5 c9 95 be
       -0.7757402 -0.4780037 0.7502734 -0.29255643
000060 fe 14 16 3c d9 11 92 bf 4f 74 49 bd 5c 3d b6 bf
       0.009160278 -1.1411697 -0.049183186 -1.4237475
000070 04 00 00 00 a7 b3 9e bf fb 98 83 be d3 e3 e3 3d
       6e-45 -1.2398576 -0.25702652 0.111274384
000080 08 6c 05 bd 36 87 d5 3c d8 e5 f3 3b 4f 99 3c 3c
       -0.03257373 0.02606545 0.007443171 0.011511161
000090 dc a9 cb be 16 6e db 3e 25 f8 c8 bc ce 61 51 be
       -0.3977803 0.42857426 -0.024532387 -0.20447466
0000a0 6d 68 af bf 8b 62 15 bb c3 41 c4 bf 30 46 85 39
       -1.3703743 -0.0022794332 -1.5332569 0.0002542003
0000b0 04 00 00 00 e0 5c 46 bf 4d bd 59 3f 82 5a 2c bf
       6e-45 -0.77485466 0.85054475 -0.67325604
0000c0 0e 85 cf 3e 04 00 00 00 ce ee d7 bd 28 9a 10 bf
       0.405312 6e-45 -0.10543595 -0.56485224
0000d0 16 63 51 be 27 3c 27 3e 64 46 14 3f e7 43 eb be
       -0.20447955 0.1633154 0.5791991 -0.45950243
0000e0 9e 4e 36 bf 08 a2 e4 3c 2b 05 29 3b 97 5b b6 bf
       -0.7121371 0.027909294 0.0025790434 -1.4246701
0000f0 1a 5a 02 3f 09 ce 7d be 25 c7 80 bf 5b 03 f9 be
       0.50918734 -0.24785627 -1.0060774 -0.48635373

exp_avg_sq f4 [64]
000000 69 f2 26 40 8f d8 86 41 59 8e 50 42 70 5d 64 41
       2.6085455 16.855742 52.13901 14.272812
000010 7b 27 95 3e ea 89 0b 42 39 7b 90 42 1e c4 e8 42
       0.29131684 34.88468 72.24067 116.38304
000020 17 55 35 41 a9 2f a9 40 40 fd d7 40 2b 88 b6 41
       11.333274 5.287068 6.7496643 22.816488
000030 5c e5 1d 43 f3 af 7d 41 98 47 a4 39 dd f7 e5 41
       157.89594 15.855456 0.0003133386 28.746027
000040 bf 8a 04 42 fc 52 56 40 57 db a9 41 04 d5 13 40
       33.135494 3.348815 21.2321 2.3098764
000050 d6 bd 8a 42 87 1e 74 41 32 a5 cc 40 0f 85 81 41
       69.37077 15.257453 6.3951654 16.18997
000060 23 ca 76 3f a1 ff 18 41 be a0 fb 3f 29 f6 20 43
       0.96402186 9.562409 1.965843 160.96156
000070 6f 51 02 02 0c 4f fd 42 34 8b 8f 41 f5 01 81 40
       9.574262e-38 126.65439 17.94297 4.031489
000080 0e a5 08 3e 0c 73 b0 3e ab d7 1f 3f e5 03 e0 3f
       0.13344213 0.34462774 0.6243846 1.7501189
000090 30 25 c7 40 eb 5b 48 41 22 13 23 3e b1 ea c8 3f
       6.2232895 12.522441 0.15925267 1.5696622
0000a0 f5 5e 08 43 66 3d c2 3c e2 ad 9b 42 f2 a4 2c 3e
       136.37093 0.023710918 77.839615 0.16859797
0000b0 16 6a 80 3b 9f 81 2c 42 63 7d e3 3f 85 f1 3c 42
       0.0039188964 43.126583 1.777264 47.23586
0000c0 5c 95 d7 40 f4 01 00 00 42 09 c5 40 9b 44 2d 42
       6.7369823 7e-43 6.15738 43.316998
0000d0 72 a2 3f 41 03 5c 97 40 6b 53 77 41 e6 86 2b 42
       11.9771595 4.729982 15.457866 42.881737
0000e0 71 67 45 42 21 0e 89 3e 13 03 ef 3f a9 fb 17 43
       49.351017 0.26768592 1.8672813 151.98305
0000f0 6f 88 77 41 eb 33 3a 40 b1 28 9d 42 a3 8e e5 41
       15.470809 2.9094188 78.579475 28.694647

exp_avg f4 [64, 64]
000000 55 09 ab 37 8f 5b 9c 3d 3e 9a 7a b9 3e 27 25 ba
       2.0389134e-05 0.07634651 -0.00023899318 -0.0006300098
000010 16 c6 4d ba a0 1a 0a 3e 15 c4 28 3d 15 86 37 3d
       -0.00078496465 0.13486719 0.041202623 0.044805605
000020 03 31 9d bc f5 90 5d 39 02 b2 8f bb 3c ae 95 3c
       -0.01918841 0.00021130203 -0.004385234 0.018271558
000030 3e 02 e2 3d 77 d6 a5 3d 04 00 00 80 de 35 ba 3d
       0.11035584 0.080975465 -6e-45 0.090923056
000040 f5 2f 05 3c c4 6e ae 3d 0a 49 a8 3b e2 8b e4 39
       0.00812911 0.085172206 0.00513566 0.0004359177
000050 c8 e9 db 3c f5 84 26 3d d3 dd 4e bc f1 94 50 3d
       0.026844874 0.04065414 -0.012626129 0.05092329
000060 4f fe 9e ba e8 c8 03 3d 11 69 5e 9f 87 88 ab 3d
       -0.0012130233 0.03217402 -4.7097237e-20 0.0837565
000070 04 00 00 00 b3 01 68 3d a8 c5 35 3e 05 a0 1e ba
       6e-45 0.056642246 0.17751181 -0.00060510664
000080 e9 b5 53 bb 9c 68 53 38 87 53 8e 37 9f c1 9e 3d
       -0.0032304472 5.0403745e-05 1.6966615e-05 0.07751774
000090 64 b9 37 bb 96 b4 ab ba b7 29 49 bc d9 d8 60 bc
       -0.0028034085 -0.0013100083 -0.012278012 -0.0137235755
0000a0 75 56 c9 3c 04 00 00 00 d6 2e 04 bb e4 8f 83 36
       0.024577359 6e-45 -0.0020169518 3.9208553e-06
0000b0 04 00 00 00 45 94 b2 3d bb 46 a7 3d fa 25 29 3d
       6e-45 0.087196864 0.08167788 0.041295983
0000c0 76 7a d2 bc 00 00 00 00 13 fc 31 3c ff 2a 89 3b
       -0.02569316 0.0 0.010863322 0.0041860337
0000d0 7e 93 c3 3d f9 45 5d 3c f8 ee 11 bb e0 44 d1 3d
       0.09549616 0.013505452 -0.002226768 0.10218215
0000e0 80 61 4c 3b 96 cb 90 3c 2d eb 4a ba 7a e3 f0 3d
       0.0031186044 0.017675202 -0.00077407324 0.11762138
0000f0 dd 70 de 3d a0 b8 39 3d c1 f5 e8 3c ed d7 19 3e
       0.10861371 0.045342088 0.028437497 0.15023775
000100 74 17 04 0a 13 1b b2 bd 04 10 18 39 18 d6 b6 ba
       6.35998e-33 -0.0869657 0.00014501816 -0.0013949303
000110 81 22 cf bb a7 54 c4 bd f1 6a 98 bd 07 e2 be bd
       -0.006321252 -0.09586459 -0.074422725 -0.09320455
000120 2f b2 d4 bb 04 00 00 00 32 ca 12 3b 4d 49 35 bd
       -0.0064909677 6e-45 0.002239835 -0.04425936
000130 d6 d5 17 be bb 83 a7 bd 04 00 00 00 79 6c 71 bd
       -0.14827666 -0.081794225 6e-45 -0.05894134
000140 78 48 f7 36 b8 37 ad bd af ae 99 b9 e1 08 0e ba
       7.36961e-06 -0.08457893 -0.00029312584 -0.0005418193
000150 17 53 a9 bd b9 b8 02 bd ef 93 c4 38 f8 63 a3 bd
       -0.08267801 -0.031914447 9.373563e-05 -0.07978052
000160 f0 a9 bc 37 14 62 de bc a1 6d 34 ba c9 4d 02 be
       2.249048e-05 -0.027146377 -0.0006882791 -0.12724985
000170 04 00 00 80 a3 4b d3 bd 15 cd 02 be 4e b7 16 ba
       -6e-45 -0.10317161 -0.12773545 -0.00057493604
000180 79 b8 53 bb 84 29 86 b9 85 e0 a7 36 c5 d2 44 bd
       -0.0032306 -0.00025589403 5.0031254e-06 -0.048052568
000190 7a 2a 0a bc 2d 86 fa b7 2b b0 ed 3b 56 37 9a 39
       -0.008432979 -2.9864803e-05 0.007253667 0.00029414397
0001a0 d9 4a bd bd 3f 08 a7 37 b3 a4 bf bc d4 fd 6a 38
       -0.09242792 1.9911791e-05 -0.023393964 5.6026343e-05
0001b0 04 00 00 80 f0 ee c7 bd fa 2b 59 bd 14 0b b7 bd
       -6e-45 -0.097623706 -0.053020455 -0.0893766
0001c0 3b e5 2c 3c 04 00 00 00 fd 99 27 bd 6c 37 a9 bc
       0.0105527 6e-45 -0.04091834 -0.02065631
0001d0 06 e3 d0 bd 2c 5c 8a bc df 96 e9 39 c0 b6 84 bd
       -0.10199551 -0.016889654 0.0004455363 -0.06480169
0001e0 fe 71 4a bd 9a 48 42 bc 6e 0f 23 3a 27 a9 19 be
       -0.049425118 -0.01185813 0.0006220256 -0.15005933
0001f0 a0 a9 98 bd c2 9c 3e bd 41 e9 8d bd 4c 43 27 be
       -0.074542284 -0.046536215 -0.06929255 -0.16334265
000200 04 00 00 00 04 00 00 00 04 00 00 00 00 00 00 00
       6e-45 6e-45 6e-45 0.0
000210 04 00 00 00 04 00 00 00 04 00 00 00 04 00 00 00
       6e-45 6e-45 6e-45 6e-45
000220 04 00 00 00 04 00 00 00 04 00 00 00 04 00 00 00
       6e-45 6e-45 6e-45 6e-45
000230 04 00 00 00 04 00 00 00 04 00 00 00 04 00 00 00
       6e-45 6e-45 6e-45 6e-45
000240 04 00 00 00 04 00 00 00 04 00 00 00 00 00 00 00
       6e-45 6e-45 6e-45 0.0
000250 04 00 00 00 04 00 00 00 04 00 00 00 04 00 00 00
       6e-45 6e-45 6e-45 6e-45
000260 04 00 00 80 04 00 00 00 04 00 00 00 04 00 00 00
       -6e-45 6e-45 6e-45 6e-45
000270 04 00 00 00 04 00 00 00 04 00 00 00 04 00 00 00
       6e-45 6e-45 6e-45 6e-45
000280 00 00 00 00 00 00 00 00 00 00 00 00 04 00 00 00
       0.0 0.0 0.0 6e-45
000290 00 00 00 00 04 00 00 00 04 00 00 00 04 00 00 00
       0.0 6e-45 6e-45 6e-45
0002a0 04 00 00 00 00 00 00 00 04 00 00 00 00 00 00 00
       6e-45 0.0 6e-45 0.0
0002b0 04 00 00 80 04 00 00 00 04 00 00 00 04 00 00 00
       -6e-45 6e-45 6e-45 6e-45
0002c0 04 00 00 00 00 00 00 00 04 00 00 00 04 00 00 00
       6e-45 0.0 6e-45 6e-45
0002d0 04 00 00 00 04 00 00 00 04 00 00 00 04 00 00 00
       6e-45 6e-45 6e-45 6e-45
0002e0 04 00 00 00 00 00 00 00 04 00 00 00 04 00 00 00
       6e-45 0.0 6e-45 6e-45
0002f0 04 00 00 00 04 00 00 00 04 00 00 00 04 00 00 00
       6e-45 6e-45 6e-45 6e-45
000300 04 00 00 00 04 00 00 80 04 00 00 80 04 00 00 00
       6e-45 -6e-45 -6e-45 6e-45
000310 04 00 00 80 04 00 00 80 04 00 00 80 04 00 00 80
       -6e-45 -6e-45 -6e-45 -6e-45
000320 04 00 00 80 04 00 00 00 04 00 00 80 04 00 00 80
       -6e-45 6e-45 -6e-45 -6e-45
000330 04 00 00 80 04 00 00 80 04 00 00 00 04 00 00 00
       -6e-45 -6e-45 6e-45 6e-45
000340 04 00 00 00 04 00 00 80 04 00 00 00 04 00 00 00
       6e-45 -6e-45 6e-45 6e-45
000350 04 00 00 80 04 00 00 80 04 00 00 80 04 00 00 80
       -6e-45 -6e-45 -6e-45 -6e-45
000360 04 00 00 80 04 00 00 00 04 00 00 00 04 00 00 80
       -6e-45 6e-45 6e-45 -6e-45
000370 04 00 00 00 04 00 00 80 04 00 00 80 04 00 00 00
       6e-45 -6e-45 -6e-45 6e-45
000380 04 00 00 00 04 00 00 80 04 00 00 80 04 00 00 00
       6e-45 -6e-45 -6e-45 6e-45
000390 04 00 00 00 04 00 00 00 04 00 00 80 04 00 00 80
       6e-45 6e-45 -6e-45 -6e-45
0003a0 04 00 00 80 04 00 00 00 04 00 00 00 04 00 00 80
       -6e-45 6e-45 6e-45 -6e-45
0003b0 04 00 00 00 04 00 00 80 04 00 00 00 04 00 00 80
       6e-45 -6e-45 6e-45 -6e-45
0003c0 04 00 00 80 00 00 00 00 04 00 00 80 04 00 00 80
       -6e-45 0.0 -6e-45 -6e-45
0003d0 04 00 00 80 04 00 00 80 04 00 00 00 04 00 00 00
       -6e-45 -6e-45 6e-45 6e-45
0003e0 04 00 00 80 04 00 00 00 04 00 00 00 04 00 00 80
       -6e-45 6e-45 6e-45 -6e-45
0003f0 04 00 00 80 04 00 00 80 04 00 00 80 04 00 00 80
       -6e-45 -6e-45 -6e-45 -6e-45
